with_traffic_light/dqn_model/models/best_model.pth (torch, 22969 bytes, 6 tensors)

fc1.weight f4 [64, 10]
000000 9e 71 65 be 30 e7 09 3d 64 b9 82 3d b8 9d a1 bd
       -0.22406623 0.033667743 0.06383017 -0.078914106
000010 12 d5 3f 3e 30 c4 75 3d ea 58 13 be d7 5c a0 be
       0.18733624 0.060001552 -0.14389387 -0.3132083
000020 56 27 88 bd 60 94 29 bd 60 06 b0 3f ac 94 91 3f
       -0.06648128 -0.041401267 1.3751945 1.1373496
000030 91 83 95 3e 54 a2 8e 3f 34 2b 06 bc ec b5 61 3f
       0.2920194 1.1143289 -0.008189011 0.88168216
000040 c9 6e 37 3f 00 5c 24 3f 5d 43 18 3f 2d e0 92 3e
       0.7165342 0.6420288 0.5947779 0.28686658
000050 d6 aa 97 3f c7 e4 9c 3f b8 dd 8f 3f 5d 17 b0 3f
       1.184901 1.2257317 1.1239538 1.375713
000060 d7 f5 0e 3f 2c bc 39 3f ae c3 99 3f ed b5 74 3f
       0.5584387 0.7255275 1.2012842 0.95590097
000070 1f 55 73 3f 44 59 69 3f 68 d1 9b bd 50 85 e7 3d
       0.9505176 0.91151834 -0.076083004 0.11304724
000080 00 ba 0d 3d a0 99 a8 bc a3 98 0d be ea 3d 67 3e
       0.03460121 -0.020581067 -0.13827758 0.22582212
000090 7e e2 7c be 7d 62 96 3e 5b 3f 90 be 98 f0 b9 3d
       -0.24695775 0.29372016 -0.28173336 0.09079093
0000a0 4e b2 b3 3f af bb 5b 3f e2 19 29 3f b4 f1 12 3f
       1.4038789 0.8583326 0.6605512 0.5740006
0000b0 07 4c 94 3e 68 9f 3b 3f 4e cc 2e 3f db e5 54 3f
       0.28964254 0.7329011 0.68280494 0.8316323
0000c0 11 e1 ae 3e 2d 89 52 3f 47 e5 9d 3f 05 76 69 3f
       0.34156087 0.82240564 1.2335595 0.9119571
0000d0 91 8a 85 3f fe f6 57 3f 17 1f 0a 3f 98 3d 4c 3f
       1.0432912 0.84361255 0.5395369 0.79781485
0000e0 f9 24 75 3f 66 4f 87 3f dd e2 42 3f 65 3e 21 3f
       0.9575954 1.0571105 0.76127416 0.6298583
0000f0 db 74 9c 3f 99 a3 6d 3f bd ac 26 3f fa e8 a1 3f
       1.2223161 0.92827755 0.6510733 1.2649224
000100 25 5a 32 3f c1 52 79 3f 25 19 7e 3f 7f 68 96 3f
       0.696688 0.973919 0.9925712 1.175064
000110 ac 32 77 3f 74 fe 72 3f 25 2e 6b 3f 62 a2 3a 3f
       0.96561694 0.94919515 0.91867286 0.72904027
000120 4d 9e a9 3e ef 08 e3 3e 10 3d 39 b9 6b aa b2 3e
       0.33128586 0.44342753 -0.00017665722 0.34895644
000130 b2 cf 03 3f 98 41 c5 3e 03 e4 bf 3e 8f cc a4 3e
       0.5148879 0.38526607 0.37478647 0.32187316
000140 ec d6 c3 3f 61 75 80 3f 70 b0 40 3f 9a dd 36 3f
       1.5299964 1.0035821 0.7526922 0.7143189
000150 0f d7 2e 3f 88 90 ec 3e 4c 29 39 3f f0 87 70 3f
       0.68296903 0.4620402 0.7232864 0.93957424
000160 65 57 30 3f e3 5d 5c 3f bb d0 bf 3f 0b d0 96 3f
       0.68883353 0.8608076 1.4985574 1.178224
000170 3f 1d 9f 3f a2 a6 75 3f 56 b9 ce 3e 6f e0 92 3f
       1.24308 0.95957386 0.40375775 1.1474742
000180 d7 76 92 3f 09 19 a0 3f c2 4a f5 3e 5d d0 09 3f
       1.1442517 1.250764 0.47908598 0.5383356
000190 7e ff 8d 3f 40 68 71 3f 2f 9f 47 3f e4 4b 9a 3f
       1.1093595 0.942997 0.7797727 1.205441
0001a0 ac 9d 41 3f bf 09 80 3f 8b d7 a2 3f 20 c3 9e 3f
       0.75631213 1.0002974 1.2722028 1.2403297
0001b0 e7 80 f5 3e 0d eb 4f 3f b6 89 db 3f 07 ec 52 3f
       0.47949907 0.81218034 1.7151401 0.823914
0001c0 a9 a2 5f 3f 27 73 5c 3f b3 4f 3c 3f 0b d2 67 3f
       0.87357575 0.8611321 0.7355911 0.90554875
0001d0 43 b4 a7 3f b3 42 5a 3f cd 46 7f 3f 40 76 e7 3e
       1.3101887 0.85258025 0.9971741 0.45207405
0001e0 a2 7e 1e be 66 98 b4 bd 08 0a 32 3d f8 17 09 3e
       -0.15477994 -0.0881813 0.043466598 0.1338805
0001f0 70 5c 7a bd a4 a2 33 be 9b ac 9f 3e 93 73 10 be
       -0.06112331 -0.17542511 0.31186375 -0.14106588
000200 50 1a 8d be ce 7a d0 bd 2e 2d da 3f fe ef b1 3f
       -0.27559137 -0.10179673 1.7045038 1.3901365
000210 f4 e6 6c 3f e1 e2 6e 3f 18 63 66 3f 34 0e 8d 3f
       0.92539907 0.9331494 0.89994955 1.101996
000220 a4 4b 8e 3f f0 98 64 3f 8b d6 76 3f 80 9a 36 3f
       1.1116834 0.89295864 0.96421117 0.713295
000230 7d 84 99 3f 9f 8b 8c 3f d7 a9 2a 3f 4f e7 3c 3f
       1.1993557 1.0980109 0.66665405 0.7379045
000240 f5 b8 1d 3f 13 8e 74 3f 1b 83 97 3f f1 1f 15 3f
       0.6161035 0.9552929 1.1836885 0.58251864
000250 97 eb f6 3e 2d 66 76 3f 40 12 d6 3b f0 46 f7 bc
       0.48226616 0.9624966 0.0065329373 -0.030185193
000260 10 38 3b bd e2 15 53 3e e8 e7 df 3d 10 5d 86 3d
       -0.045707762 0.20613816 0.109329045 0.06560719
000270 f6 ec f6 bd 10 12 a1 bc 88 15 0d bd 00 20 d9 bc
       -0.120569155 -0.019661933 -0.034444362 -0.026504517
000280 d2 2f 37 3e ab 1f 57 be de 00 3e 3e 31 b8 0a be
       0.17889336 -0.21008174 0.18555018 -0.13546826
000290 c6 e6 5f 3e 24 42 8c 3d 9c 40 c1 3d 00 48 0d 3a
       0.21865377 0.06848553 0.094361514 0.0005389452
0002a0 88 ce 85 be 60 78 67 bc 3b 22 a7 3f 29 b2 9b 3f
       -0.26134133 -0.014127821 1.3057321 1.2163745
0002b0 d7 b5 84 3f f2 db 98 3f 27 dd 78 3f 70 e7 68 3f
       1.0367993 1.1942122 0.9721245 0.90978146
0002c0 5c 9b 4f 3f 73 98 9d 3f 43 55 cf 3e 24 d5 7e 3f
       0.81096435 1.2312149 0.40494737 0.99543977
0002d0 3c 53 ec 3d f2 3a 79 3e f9 78 64 be c1 18 94 3e
       0.11539313 0.24338892 -0.22311772 0.28925136
0002e0 3e 5a e5 bd c8 88 1b bd b4 3a 47 be f0 c0 31 3d
       -0.11198853 -0.03797224 -0.19455987 0.04339689
0002f0 1f d4 21 be f8 c1 87 bd 83 1d 98 3f ba 21 5c 3f
       -0.15803574 -0.066287935 1.1884006 0.8598896
000300 f1 14 45 3f 79 f4 51 3f bf 68 3f 3f 8b 66 67 3f
       0.7698508 0.8201366 0.74769205 0.90390843
000310 3c 9c b2 3f 8a 07 8b 3f b1 4e 7d 3f 04 c5 28 3f
       1.3953929 1.0861676 0.989482 0.6592562
000320 4c c8 a3 3f fe d3 99 3f b4 7a a2 3f 4c 41 88 3f
       1.2795501 1.201782 1.2693696 1.0644927
000330 c4 93 d0 3e 7c d3 16 3f 77 92 b4 3f 06 1c 6e 3f
       0.40737736 0.5891645 1.4107198 0.9301151
000340 e3 d5 1b 3f 64 d3 6f 3f a0 51 a0 3f 38 fd aa 3f
       0.6087324 0.9368193 1.252491 1.3358526
000350 87 8f 90 3f 8a 5d 47 3f 94 44 1b 3f b0 6b 42 3f
       1.1293801 0.77877104 0.60651517 0.7594557
000360 0b 27 80 3f fc f2 96 3f b0 4e 5a 3f c3 37 0b 3f
       1.0011915 1.1792903 0.8527632 0.5438196
000370 aa 27 df 3f cb 58 56 3f 98 61 9e 3f 90 1c a1 3f
       1.743398 0.8372924 1.2373533 1.2586842
000380 93 62 3c 3f 93 8e 23 3f 24 47 9c 3f 87 92 8c 3f
       0.7358791 0.63889426 1.220921 1.0982217
000390 ff 9f 0f 3f f8 17 89 3f d6 6b a6 3f af c4 64 3f
       0.5610351 1.071044 1.3001659 0.89362615
0003a0 4b 05 eb 3e 5e ff 64 3f 2f c7 32 3f af 2d 61 3f
       0.45902476 0.8945216 0.6983518 0.8796033
0003b0 41 8b 39 3f d4 19 62 3f 37 0a db 3e 9e 32 4a 3f
       0.7247811 0.8832066 0.4278123 0.78983486
0003c0 8c 00 9f 3f e7 42 46 3f 93 d9 5d 3f 41 d4 68 3f
       1.2422042 0.77445835 0.86660117 0.90948874
0003d0 a5 c5 13 3e 8c d7 cd 3e c5 fe 78 3f 97 4b 02 3f
       0.14430864 0.40203512 0.9726375 0.5089659
0003e0 a5 79 68 3e f0 47 64 3f 3d bf b3 3f 52 40 92 3f
       0.22702654 0.8917227 1.4042736 1.1425879
0003f0 6b b9 99 3f 60 8b 93 3f 0a 26 0c 3f bd 2f 12 3f
       1.200971 1.1526909 0.54745543 0.5710409

fc1.bias f4 [64]
000000 16 81 62 be 34 ee d6 3f 2d be d7 3f 84 04 b6 bd
       -0.22119555 1.6791444 1.6854912 -0.0888758
000010 04 be bd 3f a2 50 fb 3f ff 55 fb 3f c0 62 bb 3f
       1.4823613 1.9633982 1.9635619 1.4639511
000020 54 36 de 3f f4 f6 f8 3f e8 72 d0 3f dc e0 c8 3f
       1.736033 1.9450364 1.6285067 1.5693622
000030 bc 0d 1f be d7 67 fc 3f 55 6d ee 3f 88 d2 98 be
       -0.15532583 1.971919 1.8627115 -0.29848123
000040 d6 5a 9b be 96 8f 02 40 60 a1 5f bc 05 8e c7 3f
       -0.3034274 2.0400138 -0.013649315 1.5590216
000050 48 4a fe 3f cb 74 fb 3f a6 87 d5 3f 4e d6 d8 3f
       1.9866419 1.9645017 1.6682022 1.6940401
000060 08 76 e2 3f b6 77 f8 3f 71 5b ef 3f 33 a8 ce 3f
       1.769227 1.9411533 1.8699781 1.614508
000070 03 2c ec 3f 74 fe 9a be db de c2 3f a7 f7 e9 3f
       1.8450931 -0.30272257 1.522426 1.8278702
000080 90 49 68 bd ac a9 f4 3f 7d 1d f2 3f 64 47 db 3f
       -0.05671078 1.911428 1.8915249 1.7131162
000090 10 f1 00 40 3b 1f 33 be 97 a0 fa 3f 70 d2 f1 3f
       2.0147133 -0.17492382 1.9580258 1.8892345
0000a0 e8 06 ca 3f 22 0c de 3f 8d 9f cb 3f b7 73 de 3f
       1.5783358 1.7347453 1.5908066 1.7379063
0000b0 39 de f3 3f 08 b1 eb 3f 42 db de 3f b8 50 40 be
       1.9052192 1.8413401 1.7410662 -0.18780792
0000c0 74 62 e0 3f d3 c9 f0 3f d5 af d3 3f 5d c1 de 3f
       1.7530046 1.8811592 1.6538035 1.740276
0000d0 ef 2a e1 3f e0 59 57 bd 5f 2e f4 3f 9a a6 db 3f
       1.7591227 -0.052575946 1.9076651 1.7160218
0000e0 40 e9 5e bd 0c 1b ee 3f 72 8c f5 bd 48 be 1b be
       -0.054421663 1.8602004 -0.119896784 -0.15209305
0000f0 f1 00 e5 3f ce 7a e9 3f 01 7d 8b be ed d1 01 40
       1.7890912 1.8240602 -0.27243808 2.0284379

fc2.weight f4 [64, 64]
000000 48 f2 c1 bc c0 23 4b bb 50 82 77 bd d4 e7 76 bd
       -0.023675099 -0.003099665 -0.06042701 -0.060279682
000010 34 4d 78 3d 30 28 93 3c 30 56 a3 bc 74 16 ee 3d
       0.0606205 0.017963499 -0.019938558 0.11625376
000020 3a 9c bf bd f2 74 a2 bd e0 42 75 bc 80 4f ba ba
       -0.0935597 -0.07932462 -0.0149695575 -0.0014214367
000030 c8 b4 cd bd 38 17 bc 3d 3e f1 ea bd f8 1d 12 3d
       -0.10044247 0.09184116 -0.114717945 0.03567311
000040 94 bc db 3d c0 d1 da 3c 80 10 cd bc 3c ce fb 3d
       0.10729328 0.026711345 -0.025032282 0.122951955
000050 d0 02 df 3c 6c 1c 39 bd 52 5d 87 3d 00 09 ba bb
       0.02722302 -0.04519312 0.06609596 -0.0056773424
000060 5e e7 e4 3d fc ce 00 bd 84 74 0d bd b6 75 c1 bd
       0.11176942 -0.031447396 -0.034534946 -0.0944628
000070 5c 10 03 bd b0 36 07 3c 0c be c5 bd 70 83 05 bc
       -0.031998023 0.008252785 -0.09655389 -0.008149013
000080 00 05 93 3c e0 1b c3 bd 22 a0 ad 3d 0a 9a c3 3d
       0.01794672 -0.09526801 0.084778085 0.09550865
000090 d0 60 8b bc 1c 6d 13 3d 00 62 4e 3d aa b7 a6 bd
       -0.017013937 0.035992727 0.05038643 -0.081405
0000a0 92 b1 80 bd f2 78 de 3d 8c f2 6e 3d 9c 89 b8 bd
       -0.06283869 0.10862912 0.05833678 -0.09010622
0000b0 a8 bd df bc 98 bd 76 bd 3c 13 06 3d ec 75 dd 3d
       -0.027312115 -0.060239404 0.032733187 0.108135074
0000c0 a4 c9 93 bd 32 fa ac bd 14 42 06 3d 68 af 98 3c
       -0.07216194 -0.084461585 0.03277786 0.018638328
0000d0 40 ed 03 bc 40 fb b5 bb e2 40 d3 3d 4e aa e6 bd
       -0.00805217 -0.005553633 0.1031511 -0.11262952
0000e0 a0 2f ee 3b dc 62 5a bd 00 7e 85 b9 8c be eb 3d
       0.007268861 -0.053316936 -0.00025461614 0.11510953
0000f0 34 55 b2 bd 52 23 ac 3d 68 fd bd bd 8a a5 b7 bd
       -0.087076575 0.08405174 -0.09276849 -0.08967121
000100 ae 36 f0 3d 79 84 93 3f 31 36 a1 3f d0 a2 3e bc
       0.11729179 1.1524802 1.2594663 -0.011635497
000110 cf 04 6b 3f d5 75 a8 3f 74 26 9d 3f 39 f1 9d 3f
       0.9180421 1.316096 1.227736 1.233924
000120 5a 65 88 3f 64 c4 9f 3f 46 4b a4 3f 12 27 9f 3f
       1.065593 1.2481809 1.2835472 1.2433798
000130 b6 f6 a7 3d bb 63 94 3f 0f c8 a0 3f f8 00 d5 bc
       0.08201353 1.1592935 1.2561053 -0.026001438
000140 d8 f4 fd bd fe 33 95 3f e8 be ad bd b1 9c 87 3f
       -0.12400216 1.1656492 -0.08483678 1.0594693
000150 e6 ac 9e 3f a9 d2 a8 3f 10 ce 89 3f 01 08 90 3f
       1.2396514 1.3189288 1.076601 1.1252443
000160 4d 32 ab 3f ed bf 94 3f 18 71 93 3f 25 c3 8b 3f
       1.3374726 1.1621071 1.1518888 1.0918928
000170 59 e1 a5 3f 58 d6 ae 3d da 78 a2 3f 78 44 8e 3f
       1.2959396 0.085369766 1.2693131 1.1114645
000180 00 00 d4 39 3e 7d 98 3f 08 94 ad 3f 42 4b 92 3f
       0.0004043579 1.1913221 1.35608 1.1429217
000190 c3 d2 a8 3f 50 eb 50 bc 92 1b a7 3f 38 ec ac 3f
       1.3189319 -0.012751415 1.3055289 1.3509588
0001a0 1a 42 a1 3f 68 e6 9a 3f 9e e1 88 3f e0 1a 9b 3f
       1.2598298 1.2101564 1.0693853 1.2117577
0001b0 64 81 90 3f 6b 7f a7 3f 58 14 9f 3f 38 3c 7d bd
       1.1289487 1.308576 1.2428083 -0.061825007
0001c0 b7 e4 a0 3f 25 6d 91 3f b7 f0 93 3f fd 35 9d 3f
       1.2569798 1.1361433 1.1557835 1.2282101
0001d0 90 f8 8a 3f 80 0f 53 3b 2c 22 92 3f 4f c7 95 3f
       1.0857105 0.0032205284 1.1416678 1.1701449
0001e0 2c b0 62 3d 79 52 a8 3f 86 50 8c bd be 06 a7 bd
       0.05534379 1.3150169 -0.06851296 -0.08155583
0001f0 60 2c 9f 3f 9b a4 8b 3f 6f 8d e5 be 22 61 98 3f
       1.2435417 1.0909609 -0.44834468 1.1904643
000200 a6 1e 96 3d 64 8b 95 3f 7e c6 95 3f b6 31 b9 bd
       0.073300645 1.1683164 1.17012 -0.09042685
000210 00 13 7d 3f de 69 8e 3f b4 a0 a3 3f 93 4c 9e 3f
       0.98857117 1.1126058 1.2783418 1.2367119
000220 65 46 a2 3f 54 bc 8f 3f 80 3a 99 3f 1c 9b 96 3f
       1.2677733 1.1229348 1.1970978 1.1766086
000230 dc f2 af 3d c6 9f 99 3f f6 6b a6 3f 0a eb 85 bd
       0.085912436 1.2001884 1.3001697 -0.06538971
000240 70 e7 f4 3c 72 86 8c 3f 50 79 6a 3d 6d f0 9a 3f
       0.029895514 1.097853 0.0572446 1.2104622
000250 90 72 8d 3f 72 36 8d 3f 92 4e 9f 3f 0b 8d 89 3f
       1.1050587 1.103224 1.2445853 1.0746168
000260 ad 63 9f 3f 43 83 97 3f 99 2b 96 3f 51 f6 9f 3f
       1.2452294 1.1836933 1.1732055 1.2497045
000270 77 ed 99 3f 2c 51 dc bd d4 6e 90 3f 9e 7a 8f 3f
       1.2025594 -0.1075767 1.1283822 1.1209295
000280 dc 7a e3 3d 09 69 8b 3f d3 57 9d 3f 92 4d 9d 3f
       0.11107418 1.0891429 1.2292427 1.2289298
000290 c5 4d 9d 3f c6 69 8d bd d5 20 a4 3f bd 57 9a 3f
       1.2289358 -0.0690494 1.282252 1.2058026
0002a0 e4 46 87 3f 78 92 91 3f 2f cb 93 3f 75 1e 99 3f
       1.0568509 1.1372824 1.1546382 1.196242
0002b0 c2 88 99 3f 04 6c 98 3f 7a 14 9e 3f 28 22 c9 3c
       1.199486 1.1907964 1.2349999 0.02455242
0002c0 92 3f 9d 3f 37 39 90 3f af d6 a9 3f 45 be 8a 3f
       1.2285025 1.126746 1.3268641 1.0839316
0002d0 1d ba 97 3f 06 60 ad 3d f6 74 91 3f 73 04 a6 3f
       1.1853672 0.08465581 1.1363819 1.2970108
0002e0 76 2f a0 3d 9d 0f a6 3f 8e 2f ea bd 60 28 9c 3c
       0.078215525 1.2973515 -0.114348516 0.019062221
0002f0 8c af 8c 3f 3c d1 8b 3f 91 ec 0d bf ff 91 95 3f
       1.0991073 1.0923228 -0.55439097 1.168518
000300 20 64 cd bc 5f 50 9f 3f f6 76 65 3f 84 cb f3 3d
       -0.025072157 1.2446402 0.89634645 0.11904052
000310 ca 5f 83 3f 27 2d 93 3f 5d 74 7c 3f 8e 8b 95 3f
       1.0263608 1.1498154 0.98615056 1.1683214
000320 6f 78 80 3f 81 60 9c 3f 9d ac 85 3f 2e 3c 8d 3f
       1.0036753 1.2216951 1.0443302 1.103399
000330 28 24 52 bd 7b 20 70 3f ae 31 88 3f 4c b0 1c bd
       -0.051304013 0.9379956 1.0640161 -0.038254067
000340 40 99 c4 3c 5b 90 93 3f b0 2e d5 bd 72 b6 88 3f
       0.023998857 1.1528429 -0.104092956 1.0680678
000350 c3 48 95 3f fe e1 95 3f 64 d5 87 3f 14 ad 9e 3f
       1.166283 1.1709592 1.0611997 1.2396569
000360 a2 7e 91 3f 30 56 80 3f 96 3b 92 3f 78 dd 8b 3f
       1.136677 1.0026302 1.1424434 1.0926962
000370 8e 6d 6b 3f 14 78 37 bd cb 8f 86 3f 31 c3 86 3f
       0.9196404 -0.04479225 1.0512632 1.0528318
000380 60 11 a8 bd a8 d2 89 3f 69 e3 91 3f 2f 33 91 3f
       -0.08206439 1.0767412 1.1397525 1.1343745
000390 68 57 87 3f 78 5c fc 3c b6 3a 91 3f 8a ff 8e 3f
       1.0573549 0.030805811 1.1346042 1.1171734
0003a0 f3 6c 86 3f b9 4f 85 3f fd 1f 8a 3f 54 fa 88 3f
       1.0501999 1.0414954 1.0791012 1.0701394
0003b0 1d 94 68 3f c9 93 8e 3f cc cc 83 3f 32 f0 9a 3d
       0.90851 1.113885 1.0296874 0.07565345
0003c0 bc 7d 8c 3f d1 22 9a 3f 7d e2 9c 3f 7c 25 7b 3f
       1.0975871 1.2041875 1.2256619 0.9810407
0003d0 57 3b 80 3f cc 28 9f 3d 51 9b 8c 3f b9 9d 91 3f
       1.0018109 0.07771453 1.0984899 1.1376258
0003e0 90 da d6 3d 1f a1 a2 3f 60 66 e7 3b 14 e2 ce bd
       0.10490906 1.270542 0.0070617646 -0.10101715
0003f0 ea 1a 83 3f ea 8c 6d 3f 5a 3d 12 bf 26 57 81 3f
       1.0242589 0.9279314 -0.57124865 1.010472

fc2.bias f4 [64]
000000 0c 92 77 bd eb b6 d5 3f 9f 77 c5 3f f6 9b ad 3f
       -0.060442016 1.6696447 1.542713 1.356322
000010 da f4 d7 3f 40 f8 81 3f bd 5b bb 3f 98 b0 34 bd
       1.6871598 1.0153885 1.4637371 -0.044113725
000020 3c 21 94 3c 42 e8 a1 bd 4e de 12 be 25 e1 bb 3f
       0.018082254 -0.07905628 -0.14342615 1.4678084
000030 05 5d 29 be 01 cd d1 3f 36 97 c6 3d 07 02 f4 bc
       -0.1653939 1.6390687 0.0969681 -0.029786123
000040 2f 74 ba 3f 9b 8b 80 bd 6c 9f ad 3c 4f 8d c6 3f
       1.4566706 -0.06276628 0.021194182 1.5511874
000050 0d 3e 7c 3d 4d 64 df 3f 3f 35 bd bd 05 85 d6 3f
       0.061582614 1.7452484 -0.092386715 1.6759344
000060 be 1a bd 3f 46 57 b4 3d 7c 2c d4 3f 51 21 dc bc
       1.4773786 0.088057086 1.6576076 -0.026871355
000070 d6 fb ca 3c 03 84 d0 3f 24 d3 cc bd e9 91 c8 3f
       0.024778288 1.6290287 -0.100012094 1.5669528
000080 d2 cc c2 3f 73 98 c9 3f 0c eb 9f bd 7b 9a 82 3d
       1.5218756 1.5749649 -0.078085035 0.06377121
000090 ac 45 81 bd d2 e1 b6 3f 2a ea ba 3f 61 33 fb bd
       -0.06312117 1.4287665 1.4602711 -0.12265659
0000a0 fb 30 db 3f 15 08 14 be 54 12 36 3d 2d f8 bd 3f
       1.7124323 -0.14456208 0.044451073 1.4841362
0000b0 94 b8 d2 3f 7e 98 9d bd ed 9b 83 bd bb 4e 3b 3d
       1.6462579 -0.07695101 -0.06426225 0.04572938
0000c0 da 50 c8 bd 2a ff 35 bd bc 47 c4 3f d0 e6 08 bc
       -0.09781046 -0.044432797 1.5334392 -0.008355811
0000d0 b3 a0 68 bd c0 77 d4 3f 56 82 c8 bd c7 25 11 be
       -0.05679388 1.6599045 -0.097904846 -0.14174567
0000e0 2c cb e6 b9 bd e0 ca 3f c8 3c 3b bd 18 29 c4 bd
       -0.00044020393 1.5849835 -0.045712262 -0.095781505
0000f0 ad 16 0d be 66 13 d1 3f 0b 5d e1 bd a1 05 d5 3f
       -0.13778181 1.6334045 -0.11004075 1.6642343

fc3.weight f4 [2, 64]
000000 c0 1a e8 3d 72 85 76 3f f1 56 81 3f d7 6b 59 3f
       0.11333227 0.9629737 1.0104657 0.84930176
000010 76 04 67 3f 62 a1 17 3f f9 8b 82 3f 44 a2 54 bd
       0.9024118 0.59230626 1.0198966 -0.05191256
000020 cd a9 98 bd 10 03 55 3d ba 09 d7 bd b5 f6 5a 3f
       -0.07454262 0.052004874 -0.10499902 0.85532695
000030 7d 88 6f bc 89 ee 84 3f b6 e9 d3 3d c8 cd e0 3c
       -0.014619944 1.0385295 0.10347311 0.027441874
000040 f4 a8 81 3f 48 ae d9 3c 98 3f ee bc 70 c4 85 3f
       1.0129685 0.026572362 -0.029083058 1.0450573
000050 88 e0 cd bc 74 ba 73 3f e0 1e 59 bc 64 c6 60 3f
       -0.025131479 0.9520638 -0.01325199 0.8780272
000060 3d f1 5c 3f 3e 31 9f bd 5f 63 7d 3f 6a 8a c3 bd
       0.863056 -0.07773064 0.98979753 -0.09547885
000070 00 dc 71 ba ba 35 82 3f 90 89 72 3d 6e 50 74 3f
       -0.0009226203 1.0172646 0.05921322 0.95435226
000080 90 17 6d 3f f8 bf 5b 3f 80 72 a7 bb f1 bd 7a bd
       0.9261408 0.85839796 -0.005110085 -0.0612163
000090 5d cb 21 3d b6 c0 35 3f f5 28 5e 3f 98 11 e5 3d
       0.039500583 0.7099718 0.86781245 0.11184996
0000a0 e0 53 76 3f d8 8e e4 3c 9c 51 e4 bd 32 ce 64 3f
       0.96221733 0.027900144 -0.11148378 0.8937713
0000b0 8a 38 6f 3f 26 17 b3 3d bc 9f 5f bd fa 6e 85 bd
       0.93445647 0.087446496 -0.054595694 -0.06515308
0000c0 72 ef d8 bd 40 11 19 3b b5 97 6e 3f 6e f9 b8 bd
       -0.105925456 0.002335623 0.93200237 -0.0903195
0000d0 72 c1 94 3d 14 73 7b 3f e8 aa e3 bd 68 53 a0 3d
       0.07263459 0.9822247 -0.11116582 0.078284085
0000e0 40 f5 fc bb 58 04 5f 3f bc 59 b2 3d 94 2c 11 3d
       -0.0077196658 0.87116003 0.08708522 0.035442904
0000f0 76 74 ed 3d 98 10 67 3f 84 c2 48 3d 4f 27 65 3f
       0.11594479 0.90259695 0.04901363 0.89513105
000100 48 3a aa bc a4 ce 5d 3f ba 03 5b 3f 81 73 6f 3f
       -0.020779744 0.86643434 0.8555256 0.9353562
000110 b4 1e 63 3f 27 ea 09 3f f9 59 68 3f 90 ea 51 3c
       0.88718724 0.53872913 0.9076229 0.012812272
000120 fb 62 64 bd 2c be 21 3d 4c aa 91 bd 89 4b 73 3f
       -0.055758458 0.039488003 -0.0711256 0.9503713
000130 43 63 9b bd be f3 67 3f 6b 25 3f bd 90 d1 0e bd
       -0.07587292 0.90606296 -0.046666544 -0.034867823
000140 a0 5f 5f 3f ee d1 80 bd b2 91 7b bd 37 58 5c 3f
       0.8725529 -0.06290041 -0.061418243 0.86072105
000150 99 c5 b2 bd 7e c9 6b 3f 08 c0 f8 bc 01 ee 71 3f
       -0.08729095 0.9210433 -0.030365005 0.9450379
000160 84 d1 6e 3f d3 2f ad bd 2f 64 70 3f 68 d9 6a bd
       0.93288445 -0.08456387 0.9390287 -0.05733624
000170 de 6b a8 bd 3b f0 6b 3f a0 65 9a 3c f7 6e 64 3f
       -0.08223699 0.9216344 0.018847287 0.8923182
000180 d8 50 5e 3f d9 53 6f 3f b0 25 f9 3c 9d 24 12 bd
       0.8684211 0.93487316 0.030413479 -0.03567945
000190 5f b0 7d bd fe cb 5d 3f e8 2e 77 3f a8 8a e3 bd
       -0.06193578 0.8663939 0.9655595 -0.11110431
0001a0 8d 84 73 3f af 3b fa bc c3 6c 63 bd f8 42 73 3f
       0.9512413 -0.030546037 -0.055523645 0.9502406
0001b0 16 3e 75 3f 6c 2d 07 3d 24 84 b2 bd ac a4 9e bc
       0.9579786 0.033002302 -0.0871661 -0.019365631
0001c0 90 e0 7c 3c 35 41 29 bd 99 24 5b 3f c8 59 3c 3d
       0.015434399 -0.041321952 0.8560272 0.04598406
0001d0 b7 16 81 bd a4 b0 67 3f 62 f6 27 3d 22 89 ce bd
       -0.06303161 0.9050391 0.041006453 -0.1008475
0001e0 81 b8 92 bd 07 4b 6e 3f 60 5b 8b 3c 44 7c 76 bd
       -0.071640976 0.9308323 0.017011344 -0.060177103
0001f0 40 c9 cc bd 46 a5 75 3f 06 67 d5 bd 8e af 5d 3f
       -0.09999323 0.9595531 -0.10420041 0.86596

fc3.bias f4 [2]
000000 a0 b6 53 3f cc 7c 9d 3f
       0.8270054 1.230371
