with_traffic_light/dqn_model/models/model_ep10.pth (torch, 22969 bytes, 6 tensors)

fc1.weight f4 [64, 10]
000000 f0 49 b1 3d 50 05 6e bf a5 65 2d bf cb b0 13 bf
       0.086566806 -0.92976856 -0.6773322 -0.5769164
000010 75 4c af be c9 bd 31 bf 8c d4 a8 be e7 26 91 be
       -0.3423802 -0.69430214 -0.3297466 -0.28349993
000020 2c a4 52 bf 90 e5 e7 be a3 8d d5 3e 33 dd e7 be
       -0.82281756 -0.4529233 0.41709623 -0.4528595
000030 9f 86 18 3e 98 47 d9 bd d1 d0 82 bd b4 50 82 be
       0.14895104 -0.106093585 -0.06387485 -0.25452197
000040 37 1f 0a 3e 6e f9 06 bd ac 61 9f be d9 f6 b1 bf
       0.1348847 -0.03295272 -0.31129205 -1.3903457
000050 2a cb 33 bc 19 e4 3d 3e 76 55 48 3e 4d 78 d7 bc
       -0.010973731 0.18544044 0.19563851 -0.026302481
000060 66 3c 65 be 4b 37 95 bc 16 07 63 be c1 98 b1 bd
       -0.22386321 -0.018214842 -0.22170672 -0.086717136
000070 82 61 72 3e 7d 88 6d 3e be fc 9e 3e 15 42 18 bd
       0.23670009 0.23196597 0.31052202 -0.037172396
000080 a4 7f b4 bd 8e ba 05 bf 2f d3 8f be 96 85 83 3d
       -0.08813408 -0.52237785 -0.28090808 0.06421964
000090 e7 d7 9a bd 7f da 2e be a0 53 47 bb fa a1 8a be
       -0.07560711 -0.17075537 -0.0030414835 -0.27076703
0000a0 f5 e0 51 3e 83 62 44 be 12 0c 2e bf 33 69 8f be
       0.2049597 -0.19178204 -0.6798717 -0.28009948
0000b0 6e dc 5c bf 57 12 e6 be c7 08 f9 3d 40 d4 a2 bd
       -0.8627385 -0.44935867 0.12159877 -0.0795064
0000c0 8a 23 1a bf bb 2b 55 bf 32 d2 a7 3b cf ec ad be
       -0.6021048 -0.8326985 0.005121493 -0.33969733
0000d0 ad ee 3b bf 44 0f f9 bc 38 d7 70 bf d2 8d dd be
       -0.73411065 -0.030402787 -0.940784 -0.43272263
0000e0 ce 50 b0 be 8e 78 76 be ec 83 55 be 60 9f 02 bf
       -0.3443665 -0.24069425 -0.20851105 -0.51024437
0000f0 e1 aa 27 bd 8e 66 a7 be d8 f7 81 be f9 c9 32 be
       -0.040934447 -0.3269543 -0.25384402 -0.17459859
000100 4d 97 42 be 3d d7 a7 bd 04 9b 1d be 34 ae ba bd
       -0.19003029 -0.0819535 -0.15391165 -0.09115258
000110 43 79 39 be a4 e2 cc be 9e 35 53 be 9a b8 44 bf
       -0.18112664 -0.40016663 -0.20625922 -0.7684418
000120 bb 3b a4 bd f3 26 76 bd f4 5a 12 be 45 5a 8f be
       -0.08019205 -0.06009574 -0.14292508 -0.27998558
000130 bd 08 cb be 4b b7 ad be 7b 67 81 bd 22 5a ac bf
       -0.39655104 -0.33928904 -0.063185655 -1.3465006
000140 ca 79 dd be ff 00 2f bf 91 79 9c be 12 a0 3c bf
       -0.4325698 -0.68360895 -0.30561498 -0.7368175
000150 ac d6 84 be e5 63 fc bd 46 be 0e bf 01 1b 30 be
       -0.25945032 -0.12323741 -0.55759084 -0.17197801
000160 05 23 e5 be 83 2a 79 bf c1 a9 0b 3d 90 42 98 be
       -0.4475328 -0.9733049 0.034097437 -0.29738283
000170 00 e3 01 be a8 ee 62 be 7c 95 e9 be 11 68 1b bc
       -0.1268425 -0.22161353 -0.4562186 -0.009485261
000180 a4 0f 0f be 72 f3 1d be e7 d9 f6 bd c5 4c 6c be
       -0.1397081 -0.15424898 -0.1205328 -0.2307616
000190 b5 cf 88 3e 23 1d bc be 09 26 1a be be b8 35 be
       0.26720968 -0.3674098 -0.15053572 -0.17746255
0001a0 4e 5e 57 be a2 8c 67 3e 8b 91 71 3d 75 9d 00 be
       -0.21032068 0.22612241 0.05897669 -0.12560065
0001b0 2a 1b ec bd 42 72 b6 be 12 69 82 be 05 2e 1d be
       -0.11528619 -0.35634047 -0.25470787 -0.15349586
0001c0 b9 83 b2 bd 76 03 ff be c1 d9 b9 be 85 de 89 bd
       -0.0871653 -0.49807328 -0.36298946 -0.06731895
0001d0 71 c4 d6 bd 98 b6 29 3d 86 10 19 be 07 f2 9c bd
       -0.10486687 0.0414339 -0.1494771 -0.076633506
0001e0 e7 4e a4 be 1b 1d 84 bc 70 4f a1 be 50 05 dd be
       -0.32091448 -0.01612716 -0.31505919 -0.43168116
0001f0 71 f0 b6 bc d1 45 c2 bd 16 8f 8f 3d b7 a4 b7 bd
       -0.022331448 -0.09485973 0.07009713 -0.08966964
000200 3d e3 06 bf d9 ea 4a bd 24 cd a8 bc e9 47 90 3e
       -0.5269049 -0.049540374 -0.020605631 0.28179863
000210 54 bd a0 be 9d 78 02 be dc 6a 76 bf e7 b8 d6 be
       -0.31394446 -0.12741323 -0.96256804 -0.41937944
000220 c7 00 9a 3e 6e b8 00 bf 08 4a ce be 74 2b 0b bf
       0.30078718 -0.5028142 -0.40290856 -0.5436318
000230 76 77 ab 3e 60 a4 0d bf 6f f7 d1 be e5 be 91 be
       0.3348958 -0.5532894 -0.4100909 -0.28465953
000240 ca a4 51 be 71 93 4c bc c0 ea 9c be b9 ca 46 bd
       -0.20473018 -0.012486325 -0.3064785 -0.048533175
000250 b1 5c 8d bd 44 8a 19 bf cd 8c 5b be 14 68 a3 3d
       -0.06902445 -0.599766 -0.2144043 0.07978836
000260 d5 f6 92 be 1a 5d 4a be 31 1d 41 be 38 f7 0e bd
       -0.28703943 -0.19762078 -0.18858792 -0.034903735
000270 bd a4 45 be ba cc d9 bd 18 0f 2b 3e 62 62 15 3e
       -0.19301124 -0.106347516 0.16704977 0.14588311
000280 66 ac 39 3e d2 12 0f bf 16 e6 b6 bc 75 71 27 be
       0.18132171 -0.5588809 -0.02232651 -0.16351874
000290 c4 07 e2 be 6b 40 b1 be 35 6b 59 be 64 4a 92 bd
       -0.4414655 -0.3461946 -0.21232302 -0.07143095
0002a0 a6 bc 55 bd b7 8d f5 be 70 ad a6 be f7 d8 74 be
       -0.052181862 -0.47959682 -0.32554197 -0.2391089
0002b0 59 df 80 bd 96 7d fd be 78 ac 05 bf dd 23 89 be
       -0.062926 -0.49509877 -0.5221629 -0.26785174
0002c0 8b 1a a6 bc 9a ec c6 bb 9e ad 1a be e9 fd 74 be
       -0.020276329 -0.0060706856 -0.15105292 -0.23924984
0002d0 fc ca 21 3e 2c 30 2c 3b 85 23 89 be ed d8 c0 be
       0.15800089 0.002627383 -0.26784912 -0.376655
0002e0 05 10 9e be 48 a5 5d be 89 79 8a 3d 62 6b e7 be
       -0.30871597 -0.21645081 0.06761462 -0.45199114
0002f0 83 22 14 be e3 56 98 bd a5 73 b2 be 71 ae 17 3e
       -0.1446629 -0.07438447 -0.34853855 0.14812638
000300 ec 0a 86 3d 91 11 32 3e 79 8b 85 be a3 af 89 3e
       0.06545052 0.17389514 -0.26082972 0.26891813
000310 16 c2 b1 bd be 98 6e 3d 05 32 2e 3e c0 33 bc 3e
       -0.08679597 0.058251135 0.17011268 0.36758232
000320 68 a8 64 bd 7d e3 8e be 70 84 e3 3d e5 de 08 be
       -0.055824667 -0.27907935 0.11109245 -0.13366278
000330 70 6e 7f 3d d9 20 8f be c8 14 2f 3e 7c 6e 97 be
       0.06236118 -0.27954748 0.17097771 -0.2957648
000340 44 01 80 bd 34 65 a9 3d 4d 92 09 bf 9f e7 60 bf
       -0.062502414 0.08271256 -0.5373886 -0.87853426
000350 4d 66 c2 be c4 5f e0 be bc cc 1b 3b e5 80 c8 be
       -0.37968674 -0.43823063 0.0023773154 -0.3916084
000360 d2 a7 8d bf 07 aa 57 be 36 38 83 bd 1f 60 2a be
       -1.106684 -0.21060954 -0.06407206 -0.1663823
000370 08 3c ac be 16 1a 7d bf 28 7a 07 be 47 74 94 bd
       -0.3363955 -0.9886793 -0.13230193 -0.07248741
000380 76 00 c2 be c7 2e a0 be ed 8c 7a bf 1a 8b d1 be
       -0.37890977 -0.31285688 -0.97871286 -0.4092644
000390 28 87 86 be 4f 35 61 bd e2 8d 92 3c 5f a7 8b bd
       -0.2627499 -0.05498248 0.01788992 -0.06819033
0003a0 c5 89 4d be 3f a3 99 bd e1 d5 3c bf bf d3 8c be
       -0.20072086 -0.0750184 -0.73763853 -0.275053
0003b0 e2 ca e3 3d 45 c0 a4 be 35 ae 50 be 82 77 bb be
       0.11122681 -0.3217794 -0.20378955 -0.36614615
0003c0 fe 1e 3f be bd a3 af be 7f 22 70 bd cc be 0c bd
       -0.18664166 -0.3430461 -0.058626648 -0.034361646
0003d0 70 48 ef 3c ec d9 ed 3c 14 d6 1b 3e a8 95 41 be
       0.029209346 0.029034577 0.15218383 -0.18904746
0003e0 28 6b ba 3c 47 0f 09 bf ff 04 59 3e 94 16 5f 3d
       0.022756174 -0.53538936 0.21193312 0.05446489
0003f0 53 4a 9a be b0 cf bf bd e1 e7 fa bd d7 0d 4d be
       -0.3013483 -0.09365785 -0.12251259 -0.2002481

fc1.bias f4 [64]
000000 09 c8 ae 3e 74 91 cb 3e 86 b5 a2 be 75 13 34 3f
       0.3413699 0.3975941 -0.31779116 0.7034219
000010 2c b2 69 3f e9 06 19 3f a9 80 72 3f a6 28 0c 3f
       0.91287494 0.5977617 0.9472757 0.54749525
000020 91 34 f8 3e 38 ba 5a 3f 83 81 81 3f 5a 63 70 3f
       0.48477605 0.854404 1.0117649 0.939016
000030 ee dc 56 3f c2 43 50 3f 39 c8 93 3e 0f 6a 42 be
       0.8393086 0.8135339 0.28863695 -0.1898577
000040 7f c3 32 3f 21 79 53 3f 39 b3 08 3f d7 b7 a5 be
       0.69829553 0.82606703 0.5339847 -0.3236682
000050 ec 46 e9 bd 1a f6 bb 3d 5e db a1 3d 15 dc 08 3f
       -0.113904804 0.091777995 0.07903169 0.5346082
000060 40 da 4d 3f 74 1a 50 3f 8b cc 94 3f 9c dc 15 3f
       0.8041115 0.81290364 1.1624922 0.5853975
000070 4c b5 15 3f 7d 09 82 be 19 62 21 3f be f3 5b be
       0.5847976 -0.25397864 0.6304031 -0.21479699
000080 8f c2 4f 3f 94 47 83 3e c7 3f 79 3f 30 39 ac bd
       0.8115625 0.25640547 0.9736294 -0.08409345
000090 a4 96 43 3f be ac f1 3e 48 87 56 3f 6b 72 1e 3f
       0.76401734 0.47202104 0.8380017 0.6189334
0000a0 2b 6e 3e 3f 20 97 2f bc 6d 62 12 3f 7e e0 27 3f
       0.7438685 -0.010717183 0.57181436 0.6557692
0000b0 c4 0f 78 3f 56 eb 3b 3f e0 65 6d bd 83 58 82 3f
       0.96899056 0.7340597 -0.057958484 1.0183262
0000c0 d6 27 4f 3f 92 7a 0b 3f e7 b6 78 bc 18 47 69 3f
       0.8092016 0.544839 -0.015180326 0.91124105
0000d0 69 4b 85 be 25 52 fa 3e 4c 97 52 3f 58 c2 15 bd
       -0.26034096 0.48890796 0.8226211 -0.036562294
0000e0 1c 9e 82 3f 6c 9b 80 3f 2b 3f 95 be 9c b0 80 be
       1.0204501 1.0047431 -0.29149756 -0.25134742
0000f0 78 a7 7e be e0 7e 36 bc ee b3 6f 3f ae 39 19 3f
       -0.24868572 -0.011138648 0.93633926 0.5985364

fc2.weight f4 [64, 64]
000000 ba 23 33 be 09 71 16 bd 96 66 c3 bd cd 54 9f bd
       -0.17494097 -0.036728892 -0.09541051 -0.07779846
000010 44 0c a7 bd 64 25 79 bd 05 77 24 be 0e ff a3 bd
       -0.08156636 -0.060826674 -0.16061027 -0.08007632
000020 06 23 f0 bd 9f 37 83 3d da d4 71 bd 69 ab 67 3d
       -0.1172543 0.06407093 -0.05904088 0.056559954
000030 40 c7 3d 3d a0 81 d2 bb 77 42 92 bd d0 28 8b bd
       0.046332598 -0.006424144 -0.071415834 -0.06794894
000040 28 2b 16 bd 0c 8f 37 3c 01 ce 01 bd 5d 14 a7 3d
       -0.03666225 0.011203539 -0.0316906 0.08158181
000050 6e 2d e8 bd 6e a0 f3 bd 1a b3 a6 3d 1d c1 28 3b
       -0.1133679 -0.11895834 0.0813963 0.002574987
000060 9e 63 40 3d 37 e7 a1 bc 24 88 7e bc d0 d9 06 bd
       0.046970002 -0.019763572 -0.015535388 -0.032922566
000070 c8 f5 86 bd 7a 0c ce bd 52 22 5d bc 32 87 b2 bd
       -0.06589848 -0.100609735 -0.013496952 -0.08717193
000080 1c 26 6a bd e9 f3 59 3d 85 23 05 be 98 71 a2 3c
       -0.05716525 0.053211126 -0.13001831 0.019829556
000090 a6 8b b6 bd f5 8f 07 be 69 54 2c be f8 ae 3a be
       -0.089133546 -0.13238509 -0.16829075 -0.18230808
0000a0 d0 59 d1 bd 5a 30 9d bd 4e b0 61 bc f6 2c 6d bd
       -0.102222085 -0.07675238 -0.0137749445 -0.057904206
0000b0 8b 65 0e 3d 80 e5 99 3b 00 71 27 bd e9 fa 27 3d
       0.034764808 0.004696548 -0.04087925 0.04101077
0000c0 b8 f0 ca bd ee fc af 3d 08 38 40 3d 5a 32 c7 3d
       -0.09909195 0.085931644 0.046928436 0.09726401
0000d0 2c df 09 3d 7c d5 6f 3d f7 df 3c bd a4 e0 89 bd
       0.0336601 0.058553204 -0.046112027 -0.067323
0000e0 d5 63 f4 bd 0d 20 f4 38 a0 f1 f2 3d 70 9c 75 bd
       -0.11933104 0.000116407966 0.118624926 -0.059963644
0000f0 40 90 1d bb e0 2c 7e bd d7 a5 4a bc 4e ce 8b bb
       -0.0024042279 -0.062054515 -0.012368641 -0.004266537
000100 b2 62 34 bb 6f 58 cf 3e 3f 57 ad bd b5 41 97 3d
       -0.0027524647 0.40497157 -0.084639065 0.073855795
000110 f6 5e 2f bf 07 fe 73 be 04 97 90 3e e4 4a a7 3e
       -0.68504274 -0.23827372 0.28240216 0.32674325
000120 37 ff 0e 3d 91 2c 57 3e 80 be 8d 3d 16 17 f1 3d
       0.03491136 0.21013094 0.069211006 0.117719814
000130 15 3c fa 3d 9d b0 04 bf c5 0f 9d 3d a8 13 d1 3d
       0.12218491 -0.5183199 0.076690234 0.10208827
000140 75 8f 87 3b 2f 8c 04 3e a6 6f cf bd cd 1d 55 bd
       0.0041369745 0.12944101 -0.10128717 -0.052030373
000150 70 78 36 3d f8 e7 c4 bd 5e db 80 bd 42 b4 bf be
       0.044548452 -0.09614557 -0.06291841 -0.37442213
000160 60 d0 96 bb 7d dd 88 3e 57 7b 39 bf 4b 55 0d be
       -0.004602477 0.26731482 -0.72453827 -0.13802068
000170 68 1b df 3e a0 6e 89 3d 9d 87 e2 3d 3c 4c 09 bd
       0.43575597 0.06710553 0.110610224 -0.03351997
000180 de b9 5f 3e 10 6b 64 be 50 47 b7 3e c8 dc 84 bd
       0.21848246 -0.22306466 0.35796595 -0.06487423
000190 93 7e c9 3d eb 25 d5 3e 66 39 6a 3e b1 48 d7 bc
       0.09838595 0.41630492 0.22873458 -0.02627978
0001a0 6c 35 f3 bd 6e 6a dd 3d a1 56 1d be 45 03 38 3e
       -0.11875424 0.108113155 -0.15365078 0.17969997
0001b0 33 ae 62 3e 6b 26 31 3f d2 3c cb bd 75 4e fb 3e
       0.22136764 0.69199246 -0.0992371 0.49083295
0001c0 5f 60 01 3f 6b b3 2a 3f fa 14 e6 3d 61 75 f5 3e
       0.50537676 0.6668002 0.1123447 0.47941115
0001d0 24 68 84 3d 48 8c 6b be 58 1f 69 3f c8 2b 60 3d
       0.06465176 -0.23002732 0.9106345 0.054729253
0001e0 f0 f1 cf be 6b 65 90 3d cc 73 ee bd 58 0f 4c bd
       -0.4061427 0.07050594 -0.1164318 -0.04981932
0001f0 b6 4c e0 3d a8 4c 61 3d 3b 1b 2a 3f 45 68 b6 3e
       0.109521315 0.055004746 0.664478 0.35626426
000200 be fc 08 be 6d ec fc bd 52 2b d9 3d e7 f8 88 bd
       -0.13377663 -0.12349782 0.10603966 -0.06688099
000210 2e 67 cb 3c be 29 99 3d f9 81 c3 bd a6 f6 be 3d
       0.024829473 0.07478665 -0.09546275 0.09324388
000220 97 5f 90 3d 29 c7 cd 3d eb 07 60 bc 29 7c 0b bd
       0.07049482 0.100477524 -0.013673763 -0.034053955
000230 40 a0 31 bb 02 d8 a4 3d fb af d5 3d e0 cb 1c 3d
       -0.0027103573 0.08049013 0.10433956 0.038280368
000240 89 bc 81 bd 9b 76 a3 3c 39 67 81 3c 20 2c b4 3b
       -0.06334788 0.019954016 0.01579629 0.005498424
000250 a4 03 45 bd 21 37 c9 3c f8 59 89 3d ff 90 34 bd
       -0.048099175 0.02456242 0.06706613 -0.04408359
000260 45 f6 c7 bd b2 2a 98 3d ed 96 44 3d b9 25 63 bd
       -0.09763769 0.074300185 0.047995497 -0.055455897
000270 bd a3 2c bd e0 dd a8 3b ba ff 0d be c4 e7 cc 3d
       -0.04214834 0.0051534027 -0.13867083 0.10005143
000280 c4 09 95 3d 5e 85 ab bc 62 c1 eb 3b 06 6c eb bd
       0.07277253 -0.020937618 0.007194684 -0.11495213
000290 df 72 0e be c4 3c 92 3d fe 11 d8 3d 4b b1 ee bd
       -0.13911007 0.071404964 0.10550307 -0.1165491
0002a0 8f 38 9e bc 20 fa 8c bc f2 ae 5d bc 46 0f 23 3d
       -0.019314079 -0.017209113 -0.01353048 0.039809488
0002b0 cf 5d 0b be 7a ac cc bd 18 8f ba 3c 70 b8 c8 3d
       -0.13610004 -0.09993835 0.02277331 0.09800804
0002c0 0d b4 60 3d 75 34 2b bd e8 54 f7 3d 08 fe ac 3c
       0.05485921 -0.041798074 0.120767415 0.021117225
0002d0 1e 90 c5 bd 00 8c 52 3d ce bd c0 bc d0 ac 4b bc
       -0.09646629 0.051403046 -0.023528006 -0.012431338
0002e0 4a 6e 90 3d 1a 24 cb bd f8 68 65 bd 00 bb 85 3a
       0.07052286 -0.09918995 -0.05600831 0.0010202825
0002f0 d8 cc 0b bd 9c d0 7d 3d f4 59 3e bb 89 03 ad bb
       -0.0341309 0.061966524 -0.0029045315 -0.0052799624
000300 48 32 c3 3d 80 fc eb bb 50 d7 d3 bc cc 48 95 bd
       0.09531075 -0.007201731 -0.025859505 -0.072892755
000310 c4 26 73 3d 70 75 c2 3c c4 66 15 bd dc f4 c1 3d
       0.05936314 0.02373764 -0.036474958 0.09470531
000320 ce 54 b0 bd 24 3d c7 bd e8 36 ab bd b0 74 27 bd
       -0.08609925 -0.097284585 -0.08360082 -0.040882766
000330 8e b7 91 bd 70 f7 04 bd 60 be 90 bd 62 bf f0 3d
       -0.071150884 -0.032462537 -0.07067561 0.117552534
000340 c8 fb 8a bc d8 cc 82 bc c0 bd c4 bc 68 9c 80 bd
       -0.016965762 -0.015966818 -0.024016261 -0.06279832
000350 6e 90 e9 3d 2e 3c 91 bd b0 69 2e 3d ac ea f9 bd
       0.11404501 -0.070915565 0.04258126 -0.12202963
000360 58 cc fa 3c d6 50 97 bd cc f9 81 bd a0 96 e0 3d
       0.030615017 -0.07388465 -0.06346473 0.109662294
000370 e0 89 3e 3d 2c f7 7d bd 8c e0 21 bd f0 33 c6 bd
       0.046518207 -0.0620033 -0.039520785 -0.09677875
000380 f8 2e fa 3d ae b7 e9 bd c0 a8 51 bd b0 14 41 3d
       0.1221599 -0.11411987 -0.051186323 0.04713887
000390 18 f6 2c 3d de 07 ca bd f0 45 f6 bc 54 cd 29 bd
       0.04222688 -0.09864782 -0.030062646 -0.04145558
0003a0 b8 5c f6 3d 50 8c 04 bc 0a 85 df 3d 2a ce 80 bd
       0.120294034 -0.008090094 0.10914047 -0.06289323
0003b0 5c 90 02 3d 70 06 96 3d 64 aa ce 3d f0 93 88 bd
       0.031875953 0.073254466 0.10091093 -0.06668842
0003c0 c0 be b6 bc 9c 7d 3f bd b0 44 2a bd 52 7c 9c 3d
       -0.022307754 -0.04675065 -0.04156941 0.076409
0003d0 62 a1 bf 3d e0 93 b8 bb b8 03 f9 bd ec e2 82 3d
       0.09356953 -0.0056328624 -0.121589124 0.06390938
0003e0 60 a8 6f bd 10 e2 5c bc 08 7b e0 3d 80 be cd bd
       -0.058510184 -0.013481632 0.10960966 -0.100461006
0003f0 e8 dc 90 3d f8 53 c4 3c dc 71 e8 bd e0 c4 f9 3c
       0.070733845 0.02396582 -0.11349842 0.030489385

fc2.bias f4 [64]
000000 b5 db cd bd 27 35 24 3f d2 b4 37 bd c0 aa 9a bd
       -0.100516714 0.64143604 -0.044850178 -0.07552099
000010 33 b2 39 3f e2 b5 04 be 9c dc 15 3f d8 49 eb 3e
       0.72537535 -0.12960008 0.5853975 0.45954776
000020 d7 1c 31 3f 82 5c 1c 3f 1d 90 2a 3f 03 04 05 3c
       0.6918463 0.61078656 0.6662615 0.008118632
000030 08 c4 db 3e 8d 25 f2 bc f8 da f9 3e 39 2b b7 3c
       0.42922997 -0.029558921 0.48799872 0.022359477
000040 08 0b 81 bd 08 4c f5 3e 79 b2 15 3f 45 96 be bd
       -0.06300932 0.4790957 0.5847545 -0.093060054
000050 8e 55 70 3e c6 e2 e7 bd a0 a5 78 3c f7 54 c6 bd
       0.23470137 -0.113225505 0.015176207 -0.096841745
000060 78 49 97 bd 1f 77 23 3f db b1 32 3f f4 0f aa 3d
       -0.0738706 0.6385364 0.69802636 0.08303824
000070 bf 14 1c be 6b 7d 74 3c 2e a2 b2 bd 94 db 41 3f
       -0.15242289 0.01492248 -0.087223396 0.75725675
000080 66 ce 18 bd 64 a6 a9 bd 4b d1 df 3c e8 c9 17 be
       -0.037306212 -0.082836896 0.027321478 -0.14823115
000090 0a 26 20 3f aa 73 8f bd 20 06 de bd 0f ea 40 3f
       0.62558043 -0.07004483 -0.10841012 0.75357145
0000a0 d7 fe 27 3f d5 08 48 3f 04 3d 55 bd a6 ff e4 bd
       0.6562323 0.78138477 -0.052060142 -0.111815736
0000b0 7a 55 a8 bc 85 93 0a 3f d3 a9 cf 3c 0b 83 72 3e
       -0.02054857 0.54131347 0.025349533 0.23682801
0000c0 32 6f 46 3f dc d0 b5 bb d5 f1 12 3f ea 24 42 3f
       0.7751342 -0.0055485796 0.57400256 0.75837576
0000d0 83 12 25 3f 8f b0 36 3f de d2 38 3f 64 30 1d bd
       0.6448137 0.7136316 0.7219676 -0.038376227
0000e0 5d f1 80 bc 6d b9 f7 3d 5b 4e 17 3f 31 98 99 3d
       -0.015740091 0.12095914 0.59103936 0.07499731
0000f0 fc 23 fb bc 91 fc b7 bd e0 78 72 bd b4 38 f7 bc
       -0.030656807 -0.0898372 -0.059197307 -0.030178405

fc3.weight f4 [2, 64]
000000 0d ef c5 bd 42 6a b1 3e 9d 76 8c 3d c0 42 13 bb
       -0.09664736 0.3465138 0.06858561 -0.0022470206
000010 82 9f 9e 3e 30 44 a2 3b 31 b8 9f 3e fb 94 40 3e
       0.3098107 0.0049519762 0.31195214 0.18806832
000020 ef 5c 7f 3e 76 77 cb 3e 1e e3 97 3e 09 7f a2 3c
       0.24937795 0.3973958 0.29665464 0.019835966
000030 5c 76 24 bf 5a 4d ce bd df 17 96 3e 10 39 06 bd
       -0.642431 -0.100733474 0.29315087 -0.032769263
000040 38 49 c7 bc c2 d6 d2 3e 72 c8 af 3e d9 f4 43 3d
       -0.024326906 0.41179472 0.34332615 0.047840927
000050 84 36 73 3e 70 e1 21 bc 52 ce af 3d c0 f0 3f bc
       0.23751265 -0.009880409 0.08584274 -0.011715114
000060 e0 ba af bd 2e 5a c5 3e bf 14 76 3e f0 16 13 bd
       -0.085805655 0.38545364 0.24031352 -0.035910547
000070 2a 97 c8 bd 0c e2 aa bd 36 71 d1 bd ac b7 72 3e
       -0.09794457 -0.08343896 -0.102266714 0.23702878
000080 14 fe ae bd 30 6c 64 bd 96 72 0a bd 64 12 d4 3b
       -0.08544555 -0.05576724 -0.033800684 0.006471919
000090 d5 75 ac 3e 46 e0 e6 bd e8 3d 5f bd 71 91 82 3e
       0.3368365 -0.112732455 -0.054502398 0.25501588
0000a0 ad d8 c3 3e 54 9a 94 3e 17 10 f1 3b 38 72 bd 3d
       0.38251248 0.29023993 0.0073566544 0.09250301
0000b0 f0 2d 05 3c 69 52 bd 3e 31 a9 98 bd 22 ae 8a bd
       0.008128628 0.36976936 -0.07454146 -0.067714944
0000c0 6c 4e c9 3e 35 c7 e1 bd 42 86 b1 3e 08 e0 8a 3e
       0.39317644 -0.11024324 0.34672743 0.27124047
0000d0 2c ee aa 3e c2 1d 9f 3e d9 37 8a 3e 54 d1 d5 3d
       0.33384836 0.3107739 0.26995733 0.10440317
0000e0 bc 47 52 bd f4 84 45 3e 69 84 67 3e 00 3f 00 3a
       -0.051337942 0.19288999 0.22609104 0.00048922
0000f0 bf 3e 6e bd 32 fd 18 bd 60 34 22 bc 89 a0 ab bc
       -0.058165308 -0.03735084 -0.0099001825 -0.020950573
000100 cf 3e eb 3b 10 ef 7f 3e fa de 4d 3d 12 d6 8d 3d
       0.007179118 0.24993539 0.050261475 0.06925596
000110 23 ae b0 3e 07 c4 90 bd d5 66 74 3e ca 47 7a 3e
       0.34507856 -0.07068639 0.23867352 0.24441448
000120 5e 63 a6 3e 65 bd 89 3e 6c 13 8f 3e 73 c2 33 bd
       0.32497686 0.2690231 0.27944505 -0.043886613
000130 34 b0 2d bf c7 2d f9 bc 8a 9a 83 3e c9 29 f8 bc
       -0.6784699 -0.030417336 0.2570384 -0.030293362
000140 6a 32 8d bd 8a 38 70 3e 51 54 c3 3e 64 4d 65 bd
       -0.06894381 0.23459068 0.38150266 -0.05598201
000150 98 5c 16 3e 42 45 e4 bd 49 bd 05 bd a3 82 a2 bd
       0.14683759 -0.111460224 -0.03265122 -0.07935073
000160 95 bd a0 3d f7 6a 7f 3e d9 ff c4 3e f3 c2 01 bd
       0.0784866 0.24943148 0.38476446 -0.03168006
000170 d2 b7 07 bd b5 7b fe bc 0a 42 f3 bd 89 73 a3 3e
       -0.03313429 -0.031064847 -0.1187783 0.31924084
000180 81 31 a6 bd 29 9a a8 3d 3e 25 81 bd 4b 83 a8 bd
       -0.08114911 0.08232529 -0.063059315 -0.08228167
000190 8b 80 80 3e d0 e7 38 bc 7c d9 56 bd 4d 0e ad 3e
       0.2509807 -0.011285737 -0.052453503 0.33799973
0001a0 ec a1 9d 3e 1e ea 98 3e f2 c3 8c 3d 46 72 a8 bd
       0.307876 0.29866117 0.06873311 -0.08224921
0001b0 4e 19 96 bd a2 1e 80 3e b6 a3 28 bd eb aa 16 3e
       -0.07329045 0.2502337 -0.041171752 0.14713638
0001c0 a3 36 da 3e 0f 62 b8 3c 77 08 81 3e 39 31 9a 3e
       0.4261981 0.022507695 0.2520177 0.3011568
0001d0 60 8d b9 3e 78 68 c1 3e f9 29 a0 3e 80 09 65 3d
       0.36240673 0.37775016 0.31282023 0.055917263
0001e0 f3 39 fc 3c 33 11 83 3d 58 d0 c3 3e 69 94 23 3c
       0.030789351 0.06399765 0.3824489 0.009984114
0001f0 d3 d7 43 3d 4c db 40 3d 5c 81 52 bd 7f 27 37 3d
       0.047813248 0.047084138 -0.051392898 0.0447154

fc3.bias f4 [2]
000000 5e 9e f4 3e c2 9b c4 3e
       0.47777075 0.38400084
