with_traffic_light/dqn_model/models/model_ep50.pth (torch, 22969 bytes, 6 tensors)

fc1.weight f4 [64, 10]
000000 a0 22 f5 3d a0 31 7c 3d 1c 81 8c be a8 57 03 3d
       0.11969495 0.061570764 -0.27442253 0.032066017
000010 18 c6 10 bd f8 ea 41 3d 22 ac c8 bd 40 68 b1 3c
       -0.035345167 0.047343224 -0.09798457 0.021656156
000020 d0 06 3f 3d 97 d4 93 3e 4e ea 4a 3f 42 e2 c6 bf
       0.046637356 0.2887313 0.7926377 -1.5537798
000030 c0 24 3a bf 4b 92 6d bf 74 4d 21 bf 20 8a 09 bf
       -0.72712326 -0.9280135 -0.6300881 -0.5372639
000040 0c 84 18 bf da 92 b7 be f3 2f e1 be 2e 00 b5 c0
       -0.5957649 -0.35854226 -0.43981895 -5.656272
000050 ed b4 b2 3e 7e 38 00 bf ef fe 58 3e 24 b0 80 bf
       0.3490366 -0.500862 0.21191 -1.0053754
000060 95 6b dc 3c da b8 bf be a0 ac a4 bf 55 95 03 bf
       0.026906768 -0.37445718 -1.2865181 -0.5139974
000070 7b f7 06 bf e3 08 11 bf a0 b4 b6 3c 54 ea b9 3d
       -0.52721375 -0.56654185 0.022302926 0.09077898
000080 ff 26 5b be 97 88 92 3e 50 ee 9a be 60 cf 42 3c
       -0.21401595 0.28619835 -0.30259943 0.011890262
000090 b4 88 10 3e 42 76 bf bd 29 4c 6e be a0 62 24 3c
       0.14114648 -0.09348728 -0.2327124 0.01003328
0000a0 df 00 80 3f 76 7f 35 c0 cc 8e b6 be 9a c0 20 3d
       1.0000266 -2.8359046 -0.3565582 0.03924618
0000b0 11 7f f4 be 5e 8e f7 bd 99 c4 3c bf a5 36 72 bd
       -0.47753194 -0.12087701 -0.73737484 -0.059134144
0000c0 a8 ba b1 bc d0 94 21 c0 f9 31 43 3f ff b0 26 c0
       -0.02169545 -2.5247078 0.7624813 -2.604553
0000d0 d7 61 75 3d b7 da 62 bf 4b 7b c9 be fa b4 a5 be
       0.05990776 -0.8861498 -0.39351878 -0.32364637
0000e0 67 c3 15 bf 58 a8 b3 be d4 dc 7a 3d 42 ce 20 c1
       -0.58501285 -0.35089374 0.061245754 -10.050356
0000f0 1a 51 7d be 28 7a 68 bd 1d 2d 16 be 0a d7 44 3e
       -0.24737969 -0.056757122 -0.14665647 0.19222656
000100 30 e1 9e 3c 16 cd 56 3e a6 e8 50 be 60 66 c7 bd
       0.019394487 0.20976672 -0.20401248 -0.09736323
000110 01 9a 83 3e e6 95 47 3e 7d ee 33 be 10 29 38 be
       0.25703433 0.19490775 -0.17571445 -0.17984414
000120 67 70 43 be 6e ae 94 be 66 6b 41 be 3c 70 b9 3d
       -0.19085847 -0.2903933 -0.18888626 0.0905461
000130 ba 0f f0 bd f2 44 31 be 8e 46 62 be e2 1d 59 3e
       -0.117217496 -0.17311457 -0.22097227 0.21202806
000140 63 cd ad be 1c 5a 52 bf 5a b6 a7 bd 4c 84 8a bd
       -0.3394576 -0.82168746 -0.08189078 -0.06763515
000150 6a 22 bd bf f9 20 3f bf d2 90 15 bd 3f 35 a0 be
       -1.4776127 -0.7465969 -0.036515065 -0.31290624
000160 0b da 79 bf 9a f7 16 3e ba cf 1a bf 79 23 65 bf
       -0.9759833 0.1474289 -0.60473216 -0.8950725
000170 1f 20 4e be 15 e0 88 bf 57 bd a4 bb d5 5b d2 be
       -0.2012944 -1.0693384 -0.005027454 -0.41085687
000180 60 f9 61 bf ba 18 c2 be 38 86 21 bf 2b 92 12 bf
       -0.8827114 -0.3790949 -0.63095427 -0.57254285
000190 3f 3b 3d bf 42 55 31 bf 85 28 f5 bd 21 ff 74 3e
       -0.7391853 -0.6927072 -0.11970619 0.23925449
0001a0 ee bc a5 bf 53 dc 34 be 4c 2c 7d be 82 af 2c 3d
       -1.2948282 -0.17662172 -0.24723929 0.042159565
0001b0 7f 67 2e bf 67 ab b8 bd bb 1d d6 be 0f c3 19 bf
       -0.6812667 -0.090170674 -0.41819558 -0.6006326
0001c0 08 0b 8a be ec 92 93 bf b2 84 f6 3e 1b be 27 bf
       -0.2696154 -1.1529212 0.48148113 -0.6552445
0001d0 fa a1 75 bf 02 9f 0c bf f9 13 2f bf 48 97 12 bf
       -0.9595028 -0.54930127 -0.6838985 -0.57262087
0001e0 ca 36 9c bf 6b 17 31 c0 03 99 45 be b9 4a a5 be
       -1.220422 -2.7670543 -0.1929665 -0.3228357
0001f0 16 d5 72 be f6 c4 35 bf 1b 97 9e 3e bc 57 30 bf
       -0.23714098 -0.71003664 0.3097466 -0.6888387
000200 3b ef 0a bf 27 96 2b 3e 28 21 2c 3d 20 d5 34 3d
       -0.54271287 0.16756497 0.042023808 0.044148564
000210 26 a8 7b 3e e0 26 53 bc 98 86 5c be 94 1c c3 3d
       0.24575862 -0.0128876865 -0.21535718 0.09526935
000220 54 61 dd bd e8 80 8c be 00 05 d9 3b dc 06 d4 3d
       -0.108095795 -0.27442098 0.0066229105 0.10352871
000230 06 10 36 be 6c 89 15 be d7 5b 82 be 9d 9c d8 be
       -0.1777955 -0.14603204 -0.25460693 -0.42306986
000240 b5 5a 5d bd bf 4e ff be b3 11 50 be d8 be ee be
       -0.054041583 -0.49864766 -0.20319252 -0.46629977
000250 03 3d 91 bd 02 d3 51 3e c0 fe c4 bb 2a 99 62 3e
       -0.07091715 0.2049065 -0.006011814 0.2212874
000260 57 e9 8e be 32 49 29 be 64 a6 c1 bd 5f b5 85 3e
       -0.279124 -0.16531828 -0.094555646 0.26114938
000270 dd 53 a0 be d8 17 c3 3d 68 fa cf 3d 51 03 90 3e
       -0.31313983 0.09526032 0.10155183 0.2812753
000280 d4 5f ae 3d f5 df e6 bf 1a 8c 2f bf 7f cc 01 bf
       0.085143715 -1.8037096 -0.68573153 -0.5070266
000290 00 e4 44 be e7 47 4d bf f4 8b ff be 90 68 99 be
       -0.192276 -0.8018784 -0.49911463 -0.29962587
0002a0 37 02 1d bf 3a 63 94 c0 1c 27 84 3c 0f 27 bf bf
       -0.61331505 -4.6371126 0.01613193 -1.4933795
0002b0 b3 f1 90 3d 2d db 05 bf ef 5a 02 bd 6e 8c 04 bf
       0.070773505 -0.5228756 -0.031825002 -0.5177678
0002c0 99 94 25 bf e7 a8 67 bf 2c 9e dd be e2 18 4a bf
       -0.6467987 -0.904921 -0.43284738 -0.7894422
0002d0 31 a3 1e 3f 7f cc 97 bf 9c e0 23 bf 58 31 9d bf
       0.6196776 -1.1859282 -0.640146 -1.2280684
0002e0 38 bb 0e 3e 50 79 db be 78 7b 9d bf 3d 97 28 bf
       0.13938606 -0.42865992 -1.2303305 -0.6585577
0002f0 d6 3c 0d bf 2c 36 12 c0 d7 a0 a0 3e 17 f5 1a 3f
       -0.55170953 -2.2845564 0.3137271 0.6053023
000300 59 c1 08 be e7 d8 96 be 9b 11 74 be 8d 34 d7 be
       -0.13355006 -0.29462358 -0.23834841 -0.4203228
000310 be a3 25 bf fd 86 15 be b0 b4 06 be 06 33 82 3f
       -0.64702976 -0.14602275 -0.13154864 1.0171821
000320 41 4c c4 3d 11 bd 8b 3e 41 22 08 3e fb 8b 57 be
       0.09584857 0.27292684 0.13294317 -0.21049492
000330 e3 f6 10 3e 53 22 0d be 4f c6 44 3e 75 fc 7c be
       0.1415668 -0.13782625 0.19216274 -0.2470568
000340 51 49 80 be 64 14 6e be d3 21 c8 bf 01 fe 4c c0
       -0.25055936 -0.23249966 -1.5635322 -3.2030032
000350 0f 3c 03 bf 6e fd 2e bf 05 2e 51 be 35 ad 6b bf
       -0.5126352 -0.68355453 -0.20427711 -0.9206117
000360 38 86 45 3f 87 22 07 bf f9 ee 30 bf e7 d5 a3 3e
       0.77157927 -0.5278706 -0.69114643 0.31999132
000370 8a 5e 73 be 63 65 18 be af 74 8c be 96 d1 35 3e
       -0.23766533 -0.14882426 -0.27432773 0.17755732
000380 5d 89 93 3e e0 37 8c 3c b0 a6 cf bc 54 14 78 be
       0.28815737 0.017116487 -0.025348037 -0.24226505
000390 4c 8e 6f be 6b 11 91 3e 91 e9 2f 3e 93 8e 6b bf
       -0.23394126 0.283336 0.17178942 -0.92014426
0003a0 13 f3 1e 3e fe 6d 38 bf 16 a6 20 3f dd b9 06 bf
       0.15522413 -0.72042835 0.6275343 -0.52627355
0003b0 3e af 4c bf 5a b6 f3 be ea 67 cf be 55 79 a1 bd
       -0.799549 -0.4760006 -0.40508968 -0.078844704
0003c0 12 b0 a1 be 47 eb 46 bf a0 22 c5 bc 8a e1 9a bf
       -0.31579643 -0.77702755 -0.024064362 -1.2100079
0003d0 2e cd 55 3d 93 c9 53 bf 9a d8 70 bf ce c5 6d be
       0.052197628 -0.8272945 -0.9408051 -0.23219988
0003e0 21 f8 d8 be 30 a7 d4 be 39 ec 0e be c3 a0 49 bf
       -0.42376807 -0.41533804 -0.139573 -0.7876093
0003f0 e7 26 92 bd b2 f0 47 bf c5 46 d2 3e 8b 84 0b bf
       -0.07136326 -0.78101647 0.41069618 -0.5449912

fc1.bias f4 [64]
000000 0a 46 74 be 37 42 0f 3f f6 c1 09 3c 57 bf 8e be
       -0.23854843 0.5596041 0.00840806 -0.27880356
000010 82 54 93 3f 10 b7 9b 3f 78 2d 48 bd e4 d9 11 be
       1.1510165 1.2165241 -0.048871487 -0.14243275
000020 99 6d 2e 3f 7a 0a 32 bd d5 cc 09 3f cf cc 14 bc
       0.6813598 -0.043467022 0.53828174 -0.009082033
000030 90 c9 98 bd 21 d2 74 be 02 01 d0 bc 96 19 6b be
       -0.0746032 -0.23908283 -0.025391106 -0.22958979
000040 f8 fd 00 3f 9c 0e 35 bb 71 be f0 3a 97 0a 12 bc
       0.50387526 -0.0027627116 0.0018367303 -0.008913658
000050 1a 25 26 be cb 0e 98 3d d2 a1 7e be e9 33 9f 3c
       -0.1622509 0.074246965 -0.24866417 0.019433932
000060 46 b5 2a bc 8a 3e 74 3a 67 f4 f3 bc f5 ec b3 3b
       -0.0104191955 0.00093171804 -0.029779626 0.005490894
000070 1a 7b 98 bc b5 a8 94 bb 7f e3 4e 3e 38 4e 9b be
       -0.018613387 -0.004536713 0.2020397 -0.30333114
000080 74 c0 0a bb 52 6f 8f 3f 94 8e b1 bc 9a 6d d0 3e
       -0.002117184 1.1205847 -0.021674432 0.4070862
000090 22 3f c9 3d ca a4 a4 3e c3 a2 a5 3d b3 ee 9a 3f
       0.09826495 0.32156974 0.08087685 1.2104095
0000a0 5c 21 ee bd 6e 4d d1 3e 90 91 92 3f 32 33 8d bc
       -0.116274565 0.40879387 1.1450672 -0.017236326
0000b0 13 30 48 3f a5 06 e1 bb 25 2c 0c 3f 51 2c be 3e
       0.78198355 -0.006867247 0.5475486 0.37143186
0000c0 af 4e b5 3e 16 4d a0 be 4c d8 80 3f 21 00 4e 3f
       0.35411593 -0.31308812 1.0066009 0.80468947
0000d0 3b 86 16 bc 5d c9 92 3f 49 fa 41 be 18 7a 2d bc
       -0.0091872765 1.1467701 -0.18943132 -0.010588191
0000e0 e0 31 ce bc 4a 5d 65 be 3b dc bd 3f 05 ef 90 be
       -0.025170267 -0.22398868 1.4832834 -0.28307357
0000f0 63 14 9c be 2b e8 d1 bc 7a 4c 15 3c 89 e7 95 be
       -0.30484304 -0.025623402 0.009112472 -0.2927821

fc2.weight f4 [64, 64]
000000 5c e3 8d bd 11 cf 47 3c c6 cd 97 be 96 5c b4 bd
       -0.06928131 0.012195365 -0.2964918 -0.08806722
000010 be 94 53 3f 6a d7 d3 3e 02 b3 c8 bd ec f7 fa bd
       0.8264884 0.41375285 -0.09799768 -0.122543186
000020 46 02 a3 3e 3f 57 13 be 09 47 a5 3e 48 95 3f be
       0.31837672 -0.1438875 0.32280758 -0.1870929
000030 d4 b5 d8 3e 9e 07 a5 3d 3b 80 07 bd d4 4b 10 3d
       0.42326224 0.080580935 -0.033081274 0.035228565
000040 57 64 89 be 5b ee 08 3e 45 c6 3c be 77 65 3e be
       -0.26834366 0.13372175 -0.18435009 -0.18593393
000050 1c dc f3 3d a3 3c 38 3e 54 bc e1 bd 68 d4 c9 3c
       0.11907217 0.17991881 -0.11022249 0.024637416
000060 23 df 86 be ea 8c 57 be 36 07 b0 3e f9 a7 62 be
       -0.26342115 -0.21049848 0.34380502 -0.22134389
000070 4f 3f bb 3d c8 cf 23 be e6 9c f1 3d 3c 30 8c 3d
       0.091429345 -0.15997231 0.11797504 0.068451375
000080 9e 5a 07 3d 6f 9d 4b 3e c3 85 70 be 70 4d 8a 3e
       0.033045404 0.19884275 -0.23488526 0.27012205
000090 b1 98 1f be 13 2b 9c bd 26 3e 1a be ee 1a 6b 3e
       -0.15585591 -0.07625403 -0.1506277 0.22959492
0000a0 8e 05 b5 bd 90 27 07 3e 15 a0 af 3e af 88 98 bd
       -0.0883895 0.13198686 0.3430182 -0.07447945
0000b0 1d ed 15 3e 96 ad 09 3e 98 b8 67 3e 9c 48 68 bd
       0.14641233 0.13445124 0.2262901 -0.05670987
0000c0 2d 22 79 be b9 63 ed bd 5b dd 01 be 7b 2c 11 be
       -0.24329443 -0.11591286 -0.12682097 -0.14177124
0000d0 b6 aa a3 be 4d db 23 3e 2a 09 b8 bd 34 43 4e bd
       -0.3196618 0.16001625 -0.08986123 -0.05035706
0000e0 10 77 17 bd 80 d2 97 bb 6c 34 4d 3f 80 a6 ec bb
       -0.03697878 -0.004633248 0.80158114 -0.007221997
0000f0 b0 11 e4 bc b2 d3 f3 bd 0b 51 43 be a0 50 e8 3d
       -0.027840465 -0.11905612 -0.19073884 0.11343503
000100 2e b0 b1 bd 88 9d b4 3d 61 9b c6 bd 38 66 90 bd
       -0.08676182 0.08819109 -0.09697605 -0.07050747
000110 fc fb 23 3d 28 24 5e 3d 1a 84 bd 3d 14 c9 06 bd
       0.040035233 0.0542337 0.09253712 -0.032906607
000120 65 7f eb bd 6f 06 4c 3b 29 2e e9 3d 4f e0 2b be
       -0.11498908 0.0031131764 0.113857575 -0.16784786
000130 e0 8a 0c bc 40 93 a7 bd d7 0e 1b be b0 21 9c bc
       -0.008578032 -0.081823826 -0.1514238 -0.019059032
000140 a2 4c a5 bb 74 7b a2 bd da d2 17 be 34 a0 bd bd
       -0.0050445357 -0.07933703 -0.14826527 -0.09259072
000150 60 66 91 3d d2 1b 9b bd 1c 6f 7e bd 44 ac 4c 3b
       0.070996046 -0.07573666 -0.06211768 0.0031230608
000160 8f 0d 02 bd a8 b0 dd bd a0 95 31 3d 07 84 c5 bd
       -0.03175121 -0.1082471 0.043355584 -0.09644323
000170 50 33 ef bc a2 77 83 3d dc ed 32 3d 38 d9 e2 3c
       -0.029199272 0.064193025 0.04368387 0.027691469
000180 2b be 78 bd 29 a6 32 3d 7f bc 2b 3c 2e 31 70 bd
       -0.060728233 0.043615494 0.010481953 -0.05864065
000190 26 55 89 3c 46 8b 40 3d 88 a4 5a 3d c8 b1 ac bd
       0.016764235 0.04700782 0.053379565 -0.084323466
0001a0 20 72 cc bb e2 b2 33 bd ec 28 3a 3d 9a e1 20 be
       -0.0062391907 -0.043871768 0.045449182 -0.1571106
0001b0 87 f7 99 3d 38 9a 53 bb d8 5e 56 bd ce af fd 3d
       0.07517915 -0.0032287966 -0.052336544 0.12387048
0001c0 07 b8 0f bd a4 ae e6 3d d3 cb 69 bd 12 43 f9 bd
       -0.03508761 0.11263779 -0.057079148 -0.12170996
0001d0 f1 59 cb bd c7 ea a7 bd d0 ed 2d bc 7c aa a7 bd
       -0.09929264 -0.08199077 -0.010615781 -0.08186814
0001e0 92 8d 04 3d 30 8a 0b bc 9c b0 00 be 80 08 c2 ba
       0.032361574 -0.008516833 -0.12567371 -0.0014803559
0001f0 fa b7 e9 bd 1a ed 89 3d 6a a6 6a bd 60 8f ca 3b
       -0.11412044 0.06734677 -0.05728761 0.0061816424
000200 28 9e 93 bc fd bf 3a be 54 7f b2 bd d8 77 a5 3d
       -0.01801975 -0.182373 -0.08715692 0.08079499
000210 44 e7 0a 3c 23 ba 82 3e 9e a6 93 3d 9c 17 98 bd
       0.00847799 0.25532636 0.07209514 -0.07426378
000220 11 51 78 3e 0b 82 84 be 49 66 da 3e d3 db e9 3d
       0.24249674 -0.25880465 0.42656162 0.11418881
000230 de bc a1 3e a0 49 b6 3c 93 04 d2 bd d0 5c f4 bd
       0.31589407 0.022251904 -0.10254779 -0.11931765
000240 e6 8f 29 be b6 5d 61 be 59 4f fe bb 0d bd 9c be
       -0.16558799 -0.22008404 -0.007760924 -0.30612984
000250 53 8f 83 bc aa 09 ae 3e cc e1 0f bd d5 10 c5 3d
       -0.016059553 0.33991748 -0.035127446 0.09622351
000260 68 bc 64 be e8 20 86 bd 65 83 fb 3e e0 2f 38 be
       -0.22337496 -0.06549245 0.49123684 -0.17987013
000270 ad 33 22 3e 7b 5a 76 bd 4b 17 ca 3e 00 42 c4 b9
       0.15840025 -0.060144883 0.39470896 -0.00037433207
000280 d0 05 53 be b8 c1 85 be 3c d4 99 be f8 8c d8 3e
       -0.20607686 -0.26124358 -0.30044734 0.4229505
000290 b0 ce 0c be 87 c3 a8 be 77 e0 2f be 09 df 07 be
       -0.1375072 -0.32961676 -0.1717547 -0.13268675
0002a0 66 6b d0 3d cc f3 ae 3e 86 e5 0d 3c 07 e5 a8 bd
       0.101767346 0.34170377 0.00866068 -0.082468085
0002b0 8e 0e 7f bd cb aa d5 3d d5 c2 e4 3e b3 3f f8 3d
       -0.06226974 0.10432967 0.44679895 0.12121525
0002c0 03 bc 8c be 4e 63 ca bb da ec ef bd 9e 26 84 bc
       -0.27487192 -0.006176389 -0.11715098 -0.016131695
0002d0 51 b6 e8 bb 46 3c 4c be 9c 9d 35 bd 32 ee 31 3e
       -0.007101812 -0.19944867 -0.04433976 0.1737602
0002e0 23 60 82 3d 2c 12 b8 3d 71 7a a8 be dc 2d 17 bd
       0.06365993 0.08987841 -0.32905915 -0.03690897
0002f0 be e6 c1 bd 01 0b f5 bd 32 a5 12 bc bc e6 7e 3d
       -0.09467839 -0.119649895 -0.008950518 0.062231764
000300 0e c6 9d 3d c3 f4 31 3f 09 f6 db 3c 00 35 28 3c
       0.077037916 0.695141 0.026850717 0.010266542
000310 01 d7 b7 bf 07 e5 1c 40 6c 29 37 3d 3c a9 ce bd
       -1.4362489 2.4514787 0.044717237 -0.10090873
000320 51 4b 84 bf a8 c7 d5 bd 69 8d eb be f5 c5 3e 3e
       -1.0335485 -0.10438472 -0.46006325 0.18630202
000330 0e 47 52 bd 8a 1d ea bd 21 15 a8 3d 30 fc b5 bd
       -0.051337294 -0.114314154 0.08207155 -0.088859916
000340 63 f3 df 3d 4e 1d bb bc 04 4e d0 bd 0d e2 11 3e
       0.10935094 -0.022841122 -0.1017113 0.14246388
000350 8b 7a 01 be 0b 48 ee bd 2e ff b9 3d dc 66 ec 3d
       -0.12644403 -0.11634835 0.09081875 0.11543056
000360 f7 ff 18 3e 63 df df 3d ff ef c6 3d 95 02 db 3d
       0.14941393 0.109312795 0.09713744 0.10693852
000370 28 18 62 bd c9 33 55 bd 28 4c fb be c0 f3 c5 3d
       -0.05519882 -0.05205134 -0.4908154 0.09665632
000380 8b b0 ba bd 17 a4 d3 3e 6f 16 63 bc 96 fc c6 be
       -0.09115704 0.41336128 -0.013860329 -0.38864583
000390 69 c3 bb 3c a6 5b c0 3c 32 e8 ec 3e 0c df 05 3f
       0.022920327 0.023481201 0.462709 0.5229347
0003a0 30 e0 3e 3d 57 16 f8 be 65 70 08 40 98 ab b3 bb
       0.04660052 -0.48454544 2.13186 -0.005483102
0003b0 ee 6b ca 3f 7d 71 2e 3e 5d cd be be 7b c8 0b bf
       1.5814188 0.1703548 -0.37266055 -0.54602784
0003c0 14 3a 67 bc 52 27 2a bb 44 e0 4b 3f f1 ce c0 3f
       -0.014112968 -0.0025963378 0.7963908 1.5063154
0003d0 c3 f6 5f 3d 4f e4 27 3f 48 7a dc bc d3 4c ff 3d
       0.05467869 0.65582746 -0.026913777 0.12465825
0003e0 43 7e 88 bd 68 d8 13 bd 15 8d 27 c0 5e fa cb 3d
       -0.066647075 -0.036095053 -2.617986 0.09959863
0003f0 80 4f 87 3d 27 86 b8 3d ac 57 7b 3b 20 ee 67 bc
       0.0660696 0.090099625 0.0038351817 -0.0141558945

fc2.bias f4 [64]
000000 2e aa 85 3e e4 e0 dc bd 5a fc 82 bd d9 ee 11 3f
       0.261064 -0.10785082 -0.063957885 0.5700508
000010 fc 77 c8 3e 10 3b 50 be 93 0a 89 bb 7f 5d de 3e
       0.3915404 -0.2033503 -0.0041821687 0.43430707
000020 1e 57 73 3e 5b 1e fa bd 26 bc e6 bd 21 20 5a be
       0.23763701 -0.12212821 -0.11266355 -0.21301319
000030 fa 4e 23 be 96 16 87 bc 3e 12 cd 3e 6a 72 4b 3e
       -0.15948096 -0.016490262 0.4005298 0.19867864
000040 54 e7 d3 3e 3a fd 1f be 78 48 46 bd cc e1 35 bd
       0.41387427 -0.15623942 -0.048408955 -0.04440479
000050 14 e7 da bd 91 18 30 bc 4a ee 3b bd 71 d2 f5 3e
       -0.10688606 -0.010748045 -0.045881547 0.48012117
000060 a8 8c 70 3e 05 2a 80 3f 85 c4 1f 3f b8 28 c2 bd
       0.23491156 1.0012823 0.6240924 -0.09480423
000070 2c c5 f7 bd 26 1d d7 bd 81 45 83 3e bd 25 e6 3e
       -0.120981544 -0.105036065 0.25638965 0.44950667
000080 c0 3b a8 bc 28 55 15 3f 2b 67 d5 bb f7 6a 98 bd
       -0.020536304 0.58333063 -0.0065125427 -0.07442277
000090 3b 12 b2 bd 7e 20 7b 3f d8 c8 b7 3e ae c8 0e 3f
       -0.086948834 0.98096454 0.3589542 0.5577496
0000a0 fd b8 1f bd df ac 0b be 3f 6e 04 be ca 86 84 3f
       -0.038994778 -0.13640164 -0.1293268 1.0353634
0000b0 c9 78 fd 3e 5f 1f 87 3e 24 b8 5c bb ec 86 12 3c
       0.49506214 0.26391122 -0.0033679092 0.008943301
0000c0 8b fc 8c bc ef ef 77 bd d0 17 20 3f cf 86 55 3e
       -0.017210266 -0.060531553 0.62536335 0.20852207
0000d0 92 38 8e bc ed ab 69 bd 96 c5 00 3e 83 08 42 be
       -0.01736096 -0.057048727 0.12575373 -0.1894856
0000e0 33 16 71 bd bb 5e 9f bd 91 e6 5f bd 8e de 45 bd
       -0.05885906 -0.0778174 -0.054663245 -0.048307948
0000f0 4e d8 b2 bd 91 79 2a be 81 07 1e be 92 00 06 be
       -0.08732663 -0.16647936 -0.1543255 -0.13086155

fc3.weight f4 [2, 64]
000000 2c 14 9f 3e a2 d6 f4 bb 99 80 17 3e 88 c2 65 3f
       0.31070077 -0.0074718753 0.1479515 0.89749956
000010 5f ac 37 3f 01 39 8a 3d fe e5 3d 3e af 28 40 3f
       0.7174739 0.06749154 0.18544766 0.7506208
000020 e0 09 3a 3f 5d 9f 22 bc 4a 53 70 bd 92 66 3d 3f
       0.7267132 -0.0099256905 -0.05867318 0.73984635
000030 ed 37 75 3e f3 b3 0b 3d 05 54 52 3f 0c db 3c 3f
       0.23947115 0.03410716 0.82159454 0.7377174
000040 a3 9a 5b 3f 12 34 79 3c d6 7c a9 bd bb 3f 35 bd
       0.8578283 0.015210168 -0.08275764 -0.04425023
000050 55 99 06 3c 82 2a 1f bd 9e d2 97 bb 39 f6 3c 3f
       0.008215268 -0.038858898 -0.004633262 0.73813206
000060 3c d0 17 3f 2a ec 14 c0 00 9d 3b 3f 11 f2 77 bb
       0.59302115 -2.3269143 0.7328644 -0.0037833492
000070 15 5e f7 bc c8 c1 e3 3d de 4c 63 3f 5c db 43 3f
       -0.030196229 0.11120945 0.88789165 0.7650659
000080 bd 97 25 bc d9 90 61 3f 57 02 15 bd f2 40 28 3d
       -0.010106978 0.88111645 -0.036379185 0.04107756
000090 48 6f 1b bc 0a 17 30 c0 e5 f0 7a bf 90 7d 4a 3f
       -0.009486981 -2.7514062 -0.98023826 0.79097843
0000a0 ce 1e 51 3f e5 c5 b9 ba bb 74 34 bd b0 e3 4e c0
       0.8168763 -0.0014173357 -0.044056635 -3.232647
0000b0 4b fe 5c 3f 6c b4 2b 3f 50 38 20 bc db c5 20 3d
       0.8632552 0.67072177 -0.009779051 0.03925119
0000c0 bb 8a ed bc cb 67 d6 bc da d3 3e 3f f1 5f 27 3f
       -0.028996816 -0.02617254 0.7454201 0.6538077
0000d0 60 a1 34 bc 62 e3 1c bd 8f ae 2d 3f b7 1c 55 3f
       -0.011024803 -0.038302787 0.6784448 0.8324694
0000e0 ea 95 2f 3f 5d 56 b5 bd 8c 34 17 3d 9a 04 82 3d
       0.68588126 -0.08854363 0.036915347 0.06348534
0000f0 14 48 92 bc 3e 12 e0 bd 92 3e 5a 3e 48 b5 15 3d
       -0.017856635 -0.109409794 0.21312931 0.036549836
000100 cd 70 e2 3e c9 01 04 3d 03 21 99 3d dd 7e 4a 3f
       0.44226685 0.032228265 0.074769996 0.7909983
000110 33 47 53 3f b8 33 a7 3d 12 a6 0b 3e 7f a1 3f 3f
       0.82530516 0.081641614 0.1363757 0.748558
000120 c3 4b 5d 3f b8 8c b9 3c a7 88 ed bd 5f 89 8f 3f
       0.8644373 0.022650108 -0.1159833 1.1213797
000130 25 76 7f 3d 4e 4e 6d 3d 4a 6c 50 3f c6 34 42 3f
       0.06236853 0.057936005 0.81415236 0.75861776
000140 14 17 55 3f 88 16 3d 3d 59 c5 9b 3d 1a d7 4a bd
       0.8323834 0.046164066 0.076060005 -0.049521543
000150 fc 11 99 bd 65 a3 64 bd b9 a7 bf bc df 3c 4b 3f
       -0.07474133 -0.055819888 -0.023395406 0.79389757
000160 49 e5 41 3f 52 27 07 c0 02 3f 37 3f 81 82 68 bc
       0.75740486 -2.111775 0.7158052 -0.014191271
000170 55 1a 67 bb d8 a8 ca bc 0d ee 59 3f 92 5e 3d 3f
       -0.0035263498 -0.024738714 0.8512886 0.7397243
000180 8c 71 3f 3c 75 b6 48 3f c3 3f a8 be a4 7c 2e 3d
       0.0116847865 0.7840341 -0.32861146 0.042599335
000190 84 03 2c 3d 11 43 4d c0 07 b1 a5 bf 44 16 50 3f
       0.04199554 -3.2072184 -1.294465 0.81283975
0001a0 46 ad 5b 3f 3c 94 ac 3b eb d6 62 bd 92 24 2a c0
       0.8581127 0.0052666944 -0.055380743 -2.658482
0001b0 20 5a 55 3f 87 13 5c 3f 86 66 53 bd 60 6c a8 3e
       0.83340645 0.85967296 -0.051611446 0.32895184
0001c0 fd 50 2c bd 82 64 5c 3d c1 35 33 3f bf 42 4c 3f
       -0.042069424 0.05380679 0.70003897 0.79789346
0001d0 02 dd bf 3c 0c c6 55 3d 7f 81 5a 3f 96 0a 60 3f
       0.023420814 0.052190825 0.85353845 0.8751615
0001e0 12 21 56 3f cc c0 69 3d 80 44 c1 bd 13 9b 59 bd
       0.8364421 0.05706863 -0.094368935 -0.053126406
0001f0 fb 2a 0a bd 7a ac c4 bc 13 7a 4d bd 21 01 7f 3d
       -0.033732396 -0.024008024 -0.050165247 0.062256936

fc3.bias f4 [2]
000000 c1 df 38 3f 09 47 b6 3d
       0.7221642 0.08900268
