with_traffic_light/dqn_model/models/model_ep40.pth (torch, 22969 bytes, 6 tensors)

fc1.weight f4 [64, 10]
0	0x3df522a0	0.11969495
1	0x3d7c31a0	0.061570764
2	0xbe8c811c	-0.27442253
3	0x3d0357a8	0.032066017
4	0xbd10c618	-0.035345167
5	0x3d41eaf8	0.047343224
6	0xbdc8ac22	-0.09798457
7	0x3cb16840	0.021656156
8	0x3d3f06d0	0.046637356
9	0x3e93d497	0.2887313
10	0x3f7be807	0.9840092
11	0xbfb6740d	-1.4254166
12	0xbef2ede7	-0.4744713
13	0xbf231b5e	-0.63713634
14	0xbf239e4f	-0.63913435
15	0xbea6649b	-0.3249863
16	0xbeda03a4	-0.42580903
17	0xbda9fbd7	-0.08299988
18	0xbe7f73f7	-0.24946581
19	0xc0b5002e	-5.656272
20	0x3e8893bd	0.26675215
21	0xbed8df74	-0.4235798
22	0x3dd5a65d	0.10432122
23	0xbf80b024	-1.0053754
24	0xbda53ce5	-0.08068255
25	0xbebfb8da	-0.37445718
26	0xbf98c6ad	-1.1935631
27	0xbf039555	-0.5139974
28	0xbf06f77b	-0.52721375
29	0xbf1108e3	-0.56654185
30	0x3cb6b4a0	0.022302926
31	0x3db9ea54	0.09077898
32	0xbe5b26ff	-0.21401595
33	0x3e928897	0.28619835
34	0xbe9aee50	-0.30259943
35	0x3c42cf60	0.011890262
36	0x3e1088b4	0.14114648
37	0xbdbf7642	-0.09348728
38	0xbe6e4c29	-0.2327124
39	0x3c2462a0	0.01003328
40	0x3f7662c1	0.96244437
41	0xc013f0dc	-2.311576
42	0xbebde07a	-0.37085325
43	0x3e07b043	0.13250832
44	0xbedc46d4	-0.43022788
45	0xbd2a97ff	-0.04164886
46	0xbf3d6f6f	-0.7399816
47	0xbd68fb06	-0.05688002
48	0xbda0ea1e	-0.07857154
49	0xbfa46846	-1.2844322
50	0x3f308994	0.6895993
51	0xc02862fd	-2.6310418
52	0x3d5e6d92	0.054303713
53	0xbf6426d2	-0.89121735
54	0xbeebab63	-0.46029195
55	0xbebf9dd0	-0.3742509
56	0xbeff25a6	-0.4983341
57	0xbea5731b	-0.3231438
58	0x3d9736c2	0.07383491
59	0xc1134ce1	-9.206269
60	0xbe7d511a	-0.24737969
61	0xbd687a28	-0.056757122
62	0xbe162d1d	-0.14665647
63	0x3e44d70a	0.19222656
64	0x3c9ee130	0.019394487
65	0x3e56cd16	0.20976672
66	0xbe50e8a6	-0.20401248
67	0xbdc76660	-0.09736323
68	0x3e839a01	0.25703433
69	0x3e4795e6	0.19490775
70	0xbe33ee7d	-0.17571445
71	0xbe382910	-0.17984414
72	0xbe437067	-0.19085847
73	0xbe94ae6e	-0.2903933
74	0xbe416b66	-0.18888626
75	0x3db9703c	0.0905461
76	0xbdf00fba	-0.117217496
77	0xbe3144f2	-0.17311457
78	0xbe62468e	-0.22097227
79	0x3e591de2	0.21202806
80	0xbe8b86a4	-0.2725116
81	0xbf3414cb	-0.7034423
82	0xbc2cfa31	-0.010557697
83	0xbde7e2fa	-0.11322589
84	0xbf83960d	-1.0280167
85	0xbf307247	-0.68924373
86	0x3d35a1da	0.044343807
87	0xbeb24465	-0.34817806
88	0xbf6c560d	-0.92318803
89	0x3e16f79a	0.1474289
90	0xbf1acfba	-0.60473216
91	0xbf652379	-0.8950725
92	0xbe4e201f	-0.2012944
93	0xbf88e015	-1.0693384
94	0xbba4bd57	-0.005027454
95	0xbed25bd5	-0.41085687
96	0xbf61f960	-0.8827114
97	0xbec218ba	-0.3790949
98	0xbf218638	-0.63095427
99	0xbf12922b	-0.57254285
100	0xbf331934	-0.6996033
101	0xbf182061	-0.59424406
102	0xbddb0e52	-0.10696091
103	0x3e2853c1	0.164382
104	0xbf594ac5	-0.84879714
105	0xbe1fcc48	-0.15605271
106	0xbe4c06b8	-0.19924438
107	0xbca2aaf1	-0.019856902
108	0xbf27151a	-0.65266573
109	0xbdb8ab67	-0.090170674
110	0xbef5bd04	-0.4799577
111	0xbefcd695	-0.49382463
112	0xbec528d4	-0.38507712
113	0xbf9392ec	-1.1529212
114	0x3ebb66e6	0.36601943
115	0xbf27be1b	-0.6552445
116	0xbf46a811	-0.776002
117	0xbf0c9f02	-0.54930127
118	0xbf2f13f9	-0.6838985
119	0xbf129748	-0.57262087
120	0xbfa11723	-1.2585186
121	0xc02a4e87	-2.661043
122	0xbe7edffa	-0.24890128
123	0xbea54ab9	-0.3228357
124	0xbe960df5	-0.29307523
125	0xbf35c4f6	-0.71003664
126	0x3ea9478f	0.33062407
127	0xbf3057bc	-0.6888387
128	0xbf0aef3b	-0.54271287
129	0x3e2b9627	0.16756497
130	0x3d2c2128	0.042023808
131	0x3d34d520	0.044148564
132	0x3e7ba826	0.24575862
133	0xbc5326e0	-0.0128876865
134	0xbe5c8698	-0.21535718
135	0x3dc31c94	0.09526935
136	0xbddd6154	-0.108095795
137	0xbe8c80e8	-0.27442098
138	0x3bd90500	0.0066229105
139	0x3dd406dc	0.10352871
140	0xbe361006	-0.1777955
141	0xbe15896c	-0.14603204
142	0xbe825bd7	-0.25460693
143	0xbed89c9d	-0.42306986
144	0xbd5d5ab5	-0.054041583
145	0xbeff4ebf	-0.49864766
146	0xbe5011b3	-0.20319252
147	0xbeeebed8	-0.46629977
148	0xbd913d03	-0.07091715
149	0x3e51d302	0.2049065
150	0xbbc4fec0	-0.006011814
151	0x3e62992a	0.2212874
152	0xbe8ee957	-0.279124
153	0xbe294932	-0.16531828
154	0xbdc1a664	-0.094555646
155	0x3e85b55f	0.26114938
156	0xbea053dd	-0.31313983
157	0x3dc317d8	0.09526032
158	0x3dcffa68	0.10155183
159	0x3e900351	0.2812753
160	0x3e8bb3a8	0.27285504
161	0xbfd632b9	-1.6734229
162	0xbee284f2	-0.44242054
163	0xbe5ef9ce	-0.2177498
164	0xbe5ff887	-0.2187215
165	0xbf16fe3d	-0.58981687
166	0xbea844e2	-0.32865053
167	0xbcade081	-0.021225216
168	0xbed7298f	-0.42023894
169	0xc094633a	-4.6371126
170	0x3c84271c	0.01613193
171	0xbfbf270f	-1.4933795
172	0x3d90f1b3	0.070773505
173	0xbf05db2d	-0.5228756
174	0xbd025aef	-0.031825002
175	0xbf048c6e	-0.5177678
176	0xbf259499	-0.6467987
177	0xbf67a8e7	-0.904921
178	0xbedd9e2c	-0.43284738
179	0xbf4a18e2	-0.7894422
180	0x3e82a413	0.25515804
181	0xbf57edea	-0.84347403
182	0xbf8a29ed	-1.0794045
183	0xbf9d3158	-1.2280684
184	0xbe96cdbd	-0.2945384
185	0xbedb7950	-0.42865992
186	0xbf5db4f2	-0.86604226
187	0xbf28973d	-0.6585577
188	0xbf0d3cd6	-0.55170953
189	0xc012362c	-2.2845564
190	0x3ea0a0d7	0.3137271
191	0x3f1af517	0.6053023
192	0xbe08c159	-0.13355006
193	0xbe96d8e7	-0.29462358
194	0xbe74119b	-0.23834841
195	0xbed7348d	-0.4203228
196	0xbf25a3be	-0.64702976
197	0xbe1586fd	-0.14602275
198	0xbe06b4b0	-0.13154864
199	0x3f823306	1.0171821
200	0x3dc44c41	0.09584857
201	0x3e8bbd11	0.27292684
202	0x3e082241	0.13294317
203	0xbe578bfb	-0.21049492
204	0x3e10f6e3	0.1415668
205	0xbe0d2253	-0.13782625
206	0x3e44c64f	0.19216274
207	0xbe7cfc75	-0.2470568
208	0xbe804951	-0.25055936
209	0xbe6e1464	-0.23249966
210	0xbfcce5c4	-1.6007619
211	0xc0547f10	-3.3202553
212	0xbedb5383	-0.42837152
213	0xbf2efd6e	-0.68355453
214	0xbdf5ca32	-0.12001456
215	0xbf6bad35	-0.9206117
216	0x3f152144	0.58253884
217	0xbf072287	-0.5278706
218	0xbf30eef9	-0.69114643
219	0x3ea3d5e7	0.31999132
220	0xbe735e8a	-0.23766533
221	0xbe186563	-0.14882426
222	0xbe8c74af	-0.27432773
223	0x3e35d196	0.17755732
224	0x3e93895d	0.28815737
225	0x3c8c37e0	0.017116487
226	0xbccfa6b0	-0.025348037
227	0xbe781454	-0.24226505
228	0xbe6f8e4c	-0.23394126
229	0x3e91116b	0.283336
230	0x3de2ad26	0.11068182
231	0xbf631ddf	-0.88717455
232	0x3dc2aeb5	0.09505979
233	0xbf386dfe	-0.72042835
234	0x3f113f31	0.5673705
235	0xbf06b9dd	-0.52627355
236	0xbf444781	-0.76671606
237	0xbef3b65a	-0.4760006
238	0xbecf67ea	-0.40508968
239	0xbda17955	-0.078844704
240	0xbed05629	-0.40690735
241	0xbf33174b	-0.6995742
242	0xbe06cb0a	-0.13163391
243	0xbf9ae18a	-1.2100079
244	0xbd62cdc5	-0.05537202
245	0xbf53c993	-0.8272945
246	0xbf4c8744	-0.798939
247	0xbe6dc5ce	-0.23219988
248	0xbed8f821	-0.42376807
249	0xbed4a730	-0.41533804
250	0xbe0eec39	-0.139573
251	0xbf49a0c3	-0.7876093
252	0xbd9226e7	-0.07136326
253	0xbf47f0b2	-0.78101647
254	0x3ed246c5	0.41069618
255	0xbf0b848b	-0.5449912

fc1.bias f4 [64]
0	0xbe74460a	-0.23854843
1	0x3f4e999d	0.80703145
2	0x3ded905b	0.11599799
3	0xbe8ebf57	-0.27880356
4	0x3f948c08	1.1605234
5	0x3f8f2d19	1.1185638
6	0xbd482d78	-0.048871487
7	0xbe11d9e4	-0.14243275
8	0x3f21f30d	0.6326149
9	0xbd320a7a	-0.043467022
10	0x3ee90393	0.4551054
11	0x3dd9ddde	0.10638021
12	0xbc98eef1	-0.018668624
13	0xbe74d221	-0.23908283
14	0xbcd00102	-0.025391106
15	0xbe6b1996	-0.22958979
16	0x3f421fc9	0.7582975
17	0xbb350e9c	-0.0027627116
18	0x3eda4eed	0.4263834
19	0xbc120a97	-0.008913658
20	0xbe26251a	-0.1622509
21	0xbc2419a7	-0.010015882
22	0xbe7ea1d2	-0.24866417
23	0x3da304bc	0.079598874
24	0x3dc6f6c3	0.09715035
25	0x3a743e8a	0.00093171804
26	0xbcf3f467	-0.029779626
27	0x3bb3ecf5	0.005490894
28	0xbc987b1a	-0.018613387
29	0xbb94a8b5	-0.004536713
30	0x3dec3f81	0.1153555
31	0xbe9b4e38	-0.30333114
32	0xbb0ac074	-0.002117184
33	0x3f7e08bc	0.9923208
34	0xbcb18e94	-0.021674432
35	0x3ea71b89	0.32638195
36	0x3ec0856f	0.37601802
37	0x3f12e16c	0.57375216
38	0x3e015fbd	0.12634178
39	0x3f83b827	1.0290574
40	0xbdee215c	-0.116274565
41	0x3ea9cf24	0.33165848
42	0x3f85a3f9	1.0440665
43	0xbc8d3332	-0.017236326
44	0x3f3a888e	0.72864616
45	0xbbe106a5	-0.006867247
46	0x3eede1fd	0.46461478
47	0x3e98fc11	0.2987981
48	0x3f085f2d	0.53270227
49	0xbea04d16	-0.31308812
50	0x3f99694a	1.1985257
51	0x3f7cc826	0.987429
52	0x3d7086b5	0.058722217
53	0x3f71cdf9	0.94454914
54	0xbe41fa49	-0.18943132
55	0xbc2d7a18	-0.010588191
56	0xbcce31e0	-0.025170267
57	0xbe655d4a	-0.22398868
58	0x3fc02047	1.500985
59	0xbe90ef05	-0.28307357
60	0xbe9c1463	-0.30484304
61	0xbcd1e82b	-0.025623402
62	0x3dcbdb23	0.099539064
63	0xbe95e789	-0.2927821

fc2.weight f4 [64, 64]
0	0xbd8de35c	-0.06928131
1	0x3e83ef5d	0.25768557
2	0xbe3158c3	-0.17319016
3	0xbdb45c96	-0.08806722
4	0x3e9d5c22	0.30734354
5	0x3e74933d	0.23884292
6	0xbdc8b302	-0.09799768
7	0xbdfaf7ec	-0.122543186
8	0x3ee8dd9f	0.45481583
9	0xbe13573f	-0.1438875
10	0x3eea27c6	0.4573347
11	0xbda9f195	-0.08298031
12	0x3ec56f65	0.3856155
13	0x3da5079e	0.080580935
14	0xbd07803b	-0.033081274
15	0x3d104bd4	0.035228565
16	0xbc353ffb	-0.011062617
17	0x3e08ee5b	0.13372175
18	0xbe0703fa	-0.1318511
19	0xbe3e6577	-0.18593393
20	0x3df3dc1c	0.11907217
21	0x3e474323	0.19459204
22	0xbde1bc54	-0.11022249
23	0x3d204162	0.039124854
24	0xbe0c91b2	-0.13727453
25	0xbe578cea	-0.21049848
26	0x3eb00736	0.34380502
27	0xbe62a7f9	-0.22134389
28	0x3dbb3f4f	0.091429345
29	0xbe23cfc8	-0.15997231
30	0x3e8e2b2d	0.27767316
31	0x3d8c303c	0.068451375
32	0x3d075a9e	0.033045404
33	0x3de50a0e	0.111835584
34	0xbe7085c3	-0.23488526
35	0x3ec84a0d	0.39118996
36	0xbb98ea10	-0.0046665743
37	0x3e106560	0.14101171
38	0xbdb743ac	-0.08948454
39	0x3e277b89	0.16355719
40	0xbdb5058e	-0.0883895
41	0x3e7b1236	0.24518666
42	0x3e2a3581	0.16621973
43	0xbd9888af	-0.07447945
44	0x3d741907	0.05959418
45	0x3e09ad96	0.13445124
46	0x3eb8cb56	0.36092633
47	0x3d685515	0.056721766
48	0x3a238a77	0.00062385894
49	0xbded63b9	-0.11591286
50	0x3e125a9f	0.14292382
51	0x3e0c80c0	0.13720989
52	0xbe927220	-0.28602695
53	0x3d909358	0.070593536
54	0xbdb8092a	-0.08986123
55	0xbd4e4334	-0.05035706
56	0xbd177710	-0.03697878
57	0xbb97d280	-0.004633248
58	0x3e97a90e	0.29621166
59	0xbbeca680	-0.007221997
60	0xbce411b0	-0.027840465
61	0xbdf3d3b2	-0.11905612
62	0xbdc58d93	-0.09646144
63	0x3de850a0	0.11343503
64	0xbdb1b02e	-0.08676182
65	0x3db49d88	0.08819109
66	0xbdc69b61	-0.09697605
67	0xbd906638	-0.07050747
68	0x3d23fbfc	0.040035233
69	0x3d5e2428	0.0542337
70	0x3dbd841a	0.09253712
71	0xbd06c914	-0.032906607
72	0xbdeb7f65	-0.11498908
73	0x3b4c066f	0.0031131764
74	0x3de92e29	0.113857575
75	0xbe2be04f	-0.16784786
76	0xbc0c8ae0	-0.008578032
77	0xbda79340	-0.081823826
78	0xbe1b0ed7	-0.1514238
79	0xbc9c21b0	-0.019059032
80	0xbba54ca2	-0.0050445357
81	0xbda27b74	-0.07933703
82	0xbe17d2da	-0.14826527
83	0xbdbda034	-0.09259072
84	0x3d916660	0.070996046
85	0xbd9b1bd2	-0.07573666
86	0xbd7e6f1c	-0.06211768
87	0x3b4cac44	0.0031230608
88	0xbd020d8f	-0.03175121
89	0xbdddb0a8	-0.1082471
90	0x3d3195a0	0.043355584
91	0xbdc58407	-0.09644323
92	0xbcef3350	-0.029199272
93	0x3d8377a2	0.064193025
94	0x3d32eddc	0.04368387
95	0x3ce2d938	0.027691469
96	0xbd78be2b	-0.060728233
97	0x3d9a6152	0.075380936
98	0x3c2bbc7f	0.010481953
99	0xbd70312e	-0.05864065
100	0x3c895526	0.016764235
101	0x3d408b46	0.04700782
102	0x3d5aa488	0.053379565
103	0xbdacb1c8	-0.084323466
104	0xbbcc7220	-0.0062391907
105	0xbd33b2e2	-0.043871768
106	0x3d3a28ec	0.045449182
107	0xbe20e19a	-0.1571106
108	0x3d99f787	0.07517915
109	0xbb539a38	-0.0032287966
110	0xbd565ed8	-0.052336544
111	0x3dfdafce	0.12387048
112	0xbd0fb807	-0.03508761
113	0x3de6aea4	0.11263779
114	0xbd69cbd3	-0.057079148
115	0xbdf94312	-0.12170996
116	0xbdcb59f1	-0.09929264
117	0xbd4db971	-0.05022568
118	0xbc2dedd0	-0.010615781
119	0xbda7aa7c	-0.08186814
120	0x3d048d92	0.032361574
121	0xbc0b8a30	-0.008516833
122	0xbe00b09c	-0.12567371
123	0xbac20880	-0.0014803559
124	0xbde9b7fa	-0.11412044
125	0x3d89ed1a	0.06734677
126	0xbd6aa66a	-0.05728761
127	0x3bca8f60	0.0061816424
128	0xbc939e28	-0.01801975
129	0xbe2d4486	-0.16920671
130	0xbddd6ae3	-0.10811403
131	0x3da577d8	0.08079499
132	0x3cee3689	0.029078739
133	0x3e8e6bbd	0.27816573
134	0x3d93a69e	0.07209514
135	0xbd98179c	-0.07426378
136	0x3e763657	0.24044167
137	0xbe84820b	-0.25880465
138	0x3edc94a7	0.43082163
139	0x3d87c260	0.06628871
140	0x3ea1bcde	0.31589407
141	0x3cb649a0	0.022251904
142	0xbdd20493	-0.10254779
143	0xbdf45cd0	-0.11931765
144	0xbe13546b	-0.14387672
145	0xbe615db6	-0.22008404
146	0xbd9a2b59	-0.07527799
147	0xbe9cbd0d	-0.30612984
148	0xbc838f53	-0.016059553
149	0x3ec12795	0.3772551
150	0xbd0fe1cc	-0.035127446
151	0x3dc510d5	0.09622351
152	0xbe7758e6	-0.24155006
153	0xbd8620e8	-0.06549245
154	0x3efb8365	0.49123684
155	0xbe382fe0	-0.17987013
156	0x3e2233ad	0.15840025
157	0xbd765a7b	-0.060144883
158	0x3eef6532	0.46756893
159	0xb9c44200	-0.00037433207
160	0xbe5305d0	-0.20607686
161	0xbe640936	-0.22269139
162	0xbe99d43c	-0.30044734
163	0x3ed6b637	0.41935894
164	0xbd6764db	-0.056492668
165	0xbe938e6d	-0.288196
166	0xbdf9c8fa	-0.12196536
167	0xbdc78ae5	-0.09743289
168	0x3dd06b66	0.101767346
169	0x3eaf153b	0.34195885
170	0x3cd832aa	0.026391346
171	0xbda8e507	-0.082468085
172	0xbcdae7d3	-0.02672187
173	0x3dd5aacb	0.10432967
174	0x3ee5e448	0.44900727
175	0x3df433b6	0.119239256
176	0xbe517dc4	-0.20458132
177	0xbbca634e	-0.006176389
178	0xbdd0dd2d	-0.10198436
179	0x3baf2faf	0.0053462605
180	0xbbe8b651	-0.007101812
181	0xbe25b3ed	-0.16181917
182	0xbd359d9c	-0.04433976
183	0x3e31ee32	0.1737602
184	0x3d826023	0.06365993
185	0x3db8122c	0.08987841
186	0xbea32288	-0.31862283
187	0xbd172ddc	-0.03690897
188	0xbdc1e6be	-0.09467839
189	0xbdf50b01	-0.119649895
190	0xbd2f76aa	-0.042837776
191	0x3d7ee6bc	0.062231764
192	0x3d9dc60e	0.077037916
193	0x3f7f1cf8	0.9965358
194	0x3e195d6b	0.14977042
195	0x3c283500	0.010266542
196	0xbfeb2923	-1.8371929
197	0x40135808	2.302248
198	0x3d37296c	0.044717237
199	0xbdcea93c	-0.10090873
200	0xbf5eb93c	-0.87001395
201	0xbdd5c7a8	-0.10438472
202	0xbe9dd870	-0.3082919
203	0x3e918b77	0.28426716
204	0xbdce8f7b	-0.100859605
205	0xbdea1d8a	-0.114314154
206	0x3da81521	0.08207155
207	0xbdb5fc30	-0.088859916
208	0x3ecea52c	0.4036039
209	0xbcbb1d4e	-0.022841122
210	0xbd74ebc1	-0.059795145
211	0x3e11e20d	0.14246388
212	0xbe017a8b	-0.12644403
213	0xbe35ea68	-0.177652
214	0x3db9ff2e	0.09081875
215	0x3dfd0f06	0.12356381
216	0x3e8d9eca	0.2766021
217	0x3ddfdf63	0.109312795
218	0x3dc6efff	0.09713744
219	0x3ddb0295	0.10693852
220	0xbd621828	-0.05519882
221	0xbd5533c9	-0.05205134
222	0xbec6bf3b	-0.38817772
223	0x3dc5f3c0	0.09665632
224	0xbdbab08b	-0.09115704
225	0x3e499d58	0.19688928
226	0xbc63166f	-0.013860329
227	0xbe7ad270	-0.24494338
228	0x3e0658da	0.13119832
229	0x3e7698fc	0.24081796
230	0x3ef6f5c2	0.48234373
231	0x3eb29c6a	0.3488496
232	0x3d3ee030	0.04660052
233	0xbeb6844c	-0.3564781
234	0x40002063	2.0019767
235	0xbbb3ab98	-0.005483102
236	0x3fbec2fd	1.4903256
237	0x3e2e717d	0.1703548
238	0xbe60cece	-0.2195389
239	0xbed6cb64	-0.4195205
240	0x3e6736ba	0.2257947
241	0xbb2a2752	-0.0025963378
242	0x3f887338	1.0660162
243	0x3fe5639e	1.7921026
244	0x3daa69bf	0.08320951
245	0x3ee8573d	0.45379058
246	0xbcdc7a48	-0.026913777
247	0x3dff4cd3	0.12465825
248	0xbd887e43	-0.066647075
249	0xbd13d868	-0.036095053
250	0xc042513a	-3.0362077
251	0x3dcbfa5e	0.09959863
252	0x3d874f80	0.0660696
253	0x3db88627	0.090099625
254	0x3dc27bc9	0.094962664
255	0xbc67ee20	-0.0141558945

fc2.bias f4 [64]
0	0x3e3152f0	0.17316794
1	0xbd9bd2c5	-0.076085605
2	0xbc9e10d9	-0.019295143
3	0x3ea8f27b	0.32997498
4	0x3e4670f4	0.19379026
5	0xbe503b10	-0.2033503
6	0xbb890a93	-0.0041821687
7	0x3e57def2	0.2108114
8	0x3d946020	0.07244897
9	0xbdfa1e5b	-0.12212821
10	0xbde6bc26	-0.11266355
11	0x3c34a62e	0.011025948
12	0xbe234efa	-0.15948096
13	0xbc871696	-0.016490262
14	0x3e31a436	0.17347798
15	0x3d8f418b	0.06994923
16	0x3e3b563d	0.18294616
17	0xbe1ffd3a	-0.15623942
18	0xbd464878	-0.048408955
19	0xbd35e1cc	-0.04440479
20	0xbddae714	-0.10688606
21	0xbc301891	-0.010748045
22	0xbd3bee4a	-0.045881547
23	0x3e86915d	0.26282778
24	0x3e203db6	0.15648541
25	0x3f3bdc73	0.73383254
26	0x3ecf4592	0.40482765
27	0xbdc228b8	-0.09480423
28	0xbdf7c52c	-0.120981544
29	0xbdd71d26	-0.105036065
30	0x3da7affc	0.08187863
31	0x3e64592b	0.2229964
32	0xbca83bc0	-0.020536304
33	0x3eb115ef	0.34587047
34	0xbbd5672b	-0.0065125427
35	0xbd986af7	-0.07442277
36	0xbdb2123b	-0.086948834
37	0x3f68b865	0.90906364
38	0x3f0f15eb	0.5589282
39	0x3eacfbd8	0.33785892
40	0x3e47d8ee	0.19516346
41	0xbe0bacdf	-0.13640164
42	0xbe046e3f	-0.1293268
43	0x3f6cd10f	0.925065
44	0x3e8b6f9d	0.27233592
45	0x3e02b583	0.12764554
46	0xbb5cb824	-0.0033679092
47	0x3dace465	0.08442
48	0xbc8cfc8b	-0.017210266
49	0xbd77efef	-0.060531553
50	0x3ecd72df	0.40126702
51	0x3d7cda06	0.06173136
52	0xbc8e3892	-0.01736096
53	0xbd69abed	-0.057048727
54	0x3ce5b359	0.028039621
55	0x3ce43f86	0.027862322
56	0x3d2a1729	0.041525993
57	0xbd9f5ebb	-0.0778174
58	0xbd5fe691	-0.054663245
59	0xbc87837d	-0.01654219
60	0xbdb2d84e	-0.08732663
61	0xbe09f277	-0.13471399
62	0xbe1e0781	-0.1543255
63	0xbe060092	-0.13086155

fc3.weight f4 [2, 64]
0	0x3e50e228	0.20398772
1	0xbd20b4b5	-0.039234836
2	0x3dae5578	0.085123956
3	0x3f63333c	0.8875005
4	0x3f43b459	0.76447064
5	0x3d8a3901	0.06749154
6	0x3e3de5fe	0.18544766
7	0x3f44a36c	0.7681186
8	0x3f4e7737	0.8065066
9	0xbc229f5d	-0.0099256905
10	0xbd70534a	-0.05867318
11	0x3f810b48	1.0081568
12	0x3e7537ed	0.23947115
13	0x3d0bb3f3	0.03410716
14	0x3f565f5d	0.8373926
15	0x3f627233	0.88455504
16	0x3f5e6e36	0.8688692
17	0x3c793412	0.015210168
18	0xbda97cd6	-0.08275764
19	0xbd353fbb	-0.04425023
20	0x3c069955	0.008215268
21	0xbd1f2a82	-0.038858898
22	0xbb97d29e	-0.004633262
23	0x3f426f2d	0.7595089
24	0x3f3bae26	0.73312604
25	0xbfc073fe	-1.5035398
26	0x3f37859c	0.71688247
27	0xbb77f211	-0.0037833492
28	0xbcf75e15	-0.030196229
29	0x3de3c1c8	0.11120945
30	0x3f7dbd29	0.9911676
31	0x3f48c666	0.7842773
32	0xbc2597bd	-0.010106978
33	0x3f5c3b14	0.86027646
34	0xbd150257	-0.036379185
35	0x3d2840f2	0.04107756
36	0xbc1b6f48	-0.009486981
37	0xc002bd04	-2.0427866
38	0xbf483d68	-0.782187
39	0x3f4b1e74	0.7934334
40	0x3f82e305	1.0225531
41	0xbab9c5e5	-0.0014173357
42	0xbd3474bb	-0.044056635
43	0xc01b43d0	-2.426014
44	0x3f6a15dc	0.91439605
45	0x3f452fb3	0.7702591
46	0xbc203850	-0.009779051
47	0x3e188277	0.14893518
48	0xbced8abb	-0.028996816
49	0xbcd667cb	-0.02617254
50	0x3f3a7584	0.72835565
51	0x3f3fe753	0.7496235
52	0xbc34a160	-0.011024803
53	0xbd1ce362	-0.038302787
54	0x3f55ff88	0.83593035
55	0x3f8243e7	1.0176972
56	0x3f6cdc14	0.9252331
57	0xbdb5565d	-0.08854363
58	0x3d17348c	0.036915347
59	0x3d82049a	0.06348534
60	0xbc924814	-0.017856635
61	0xbde0123e	-0.109409794
62	0x3e5a3e92	0.21312931
63	0x3d15b548	0.036549836
64	0x3eb44b9c	0.35213935
65	0x3d0401c9	0.032228265
66	0x3de56eb8	0.112027586
67	0x3f4e6789	0.8062673
68	0x3f5c02a9	0.8594156
69	0x3da733b8	0.081641614
70	0x3e0ba612	0.1363757
71	0x3f443a3b	0.7665135
72	0x3f6951f7	0.91140693
73	0x3cb98cb8	0.022650108
74	0xbded88a7	-0.1159833
75	0x3f90fad8	1.1326551
76	0x3d7f7625	0.06236853
77	0x3d6d4e4e	0.057936005
78	0x3f57ce80	0.8429947
79	0x3f55b172	0.83473885
80	0x3f5ab2fe	0.8542937
81	0x3d3d1688	0.046164066
82	0x3d9bc559	0.076060005
83	0xbd4ad71a	-0.049521543
84	0xbd9911fc	-0.07474133
85	0xbd64a365	-0.055819888
86	0xbcbfa7b9	-0.023395406
87	0x3f539fc0	0.82665634
88	0x3f553f7d	0.833
89	0xbfa6f062	-1.3042109
90	0x3f3d77cf	0.7401094
91	0xbc688281	-0.014191271
92	0xbb671a55	-0.0035263498
93	0xbccaa8d8	-0.024738714
94	0x3f6780e2	0.90431035
95	0x3f421594	0.75814176
96	0x3c3f718c	0.0116847865
97	0x3f4e7bb0	0.8065748
98	0xbea83fc3	-0.32861146
99	0x3d2e7ca4	0.042599335
100	0x3d2c0384	0.04199554
101	0xc01f7673	-2.4916046
102	0xbf95be5f	-1.1698722
103	0x3f562d57	0.83662933
104	0x3f807496	1.0035579
105	0x3bac943c	0.0052666944
106	0xbd62d6eb	-0.055380743
107	0xbff313e3	-1.8990444
108	0x3f5ccdb9	0.8625141
109	0x3f6f79bd	0.9354513
110	0xbd536686	-0.051611446
111	0xbc36cd25	-0.011157309
112	0xbd2c50fd	-0.042069424
113	0x3d5c6482	0.05380679
114	0x3f394745	0.72374374
115	0x3f5ad5e1	0.85482603
116	0x3cbfdd02	0.023420814
117	0x3d55c60c	0.052190825
118	0x3f6be27e	0.92142475
119	0x3f730e27	0.9494347
120	0x3f58fc86	0.8476032
121	0x3d69c0cc	0.05706863
122	0xbdc14480	-0.094368935
123	0xbdaddb81	-0.08489133
124	0xbd0a2afb	-0.033732396
125	0xbd64665b	-0.055761676
126	0xbd4d7a13	-0.050165247
127	0x3d7f0121	0.062256936

fc3.bias f4 [2]
0	0x3ecca90b	0.3997272
1	0x3e2575dd	0.16158243
