with_traffic_light/dqn_model/models/model_ep30.pth (torch, 22969 bytes, 6 tensors)

fc1.weight f4 [64, 10]
0.24999458 -1.344777 -0.4171588 -0.6951352 -0.0074608615 -0.7719654 -0.55797184 -0.4017953
-0.9411127 -0.4529233 0.34460953 0.07190743 0.2810916 0.012306448 -0.12443833 -0.21076523
0.39003274 0.07730396 -0.32273972 -3.1281743 -0.010973731 0.18544044 0.19563851 -0.026302481
-0.22386321 -0.018214842 -0.22170672 -0.086717136 0.23670009 0.23196597 -0.094373345 -1.0964463
-0.06107299 -1.089112 -0.05711472 -0.26472947 -0.87476444 -0.5639704 -0.38425434 -0.33688885
0.16797327 -0.43695247 -0.8121085 -0.4107023 -0.94866645 -0.69119996 0.036759738 -0.21356909
-0.6330798 -1.2904251 0.04773988 -0.6330939 -0.7750933 -0.0053968728 -1.0383915 -0.861409
-0.45057926 -0.21269406 -0.19645916 -0.5650234 -0.4537248 -0.5817954 -0.5334322 -0.6845851
-0.39078426 -0.19260333 -0.4716593 -0.40154788 -0.5629507 -0.69434494 -0.51612276 -0.6362891
-0.012783544 -0.30815074 0.021833602 -0.2837359 -0.6191557 -0.5823306 -0.34529293 -1.3953233
-0.19091572 -0.78339964 0.12317821 -0.8703005 0.21681063 -0.23182698 -0.87194675 -0.30556977
-0.5811244 -0.9733049 -0.41170615 -0.7165928 -0.04962598 -0.8372566 -0.21617046 -0.13428858
-0.66186404 -0.55799556 -0.60325783 -0.40253863 -0.009533936 -0.48179665 -0.3582168 -0.6640012
-0.4252338 0.09754099 -0.08047369 -0.310891 -0.29637492 -0.5925815 -0.41259015 -0.060870986
-0.11676864 -0.84595674 -0.4008451 -0.022926781 -0.04397387 0.03545441 -0.1438678 -0.115728796
-0.52529496 -0.59839076 0.05046374 -0.97090954 0.4169967 -0.4349934 -0.70807606 -0.52700335
-1.069287 0.06791872 -0.08303332 0.025601937 -0.4486708 -0.26534975 -1.061792 -0.6964708
0.20209266 -0.6438729 -0.4503021 -1.0418983 0.34790814 -0.86533767 -0.30249354 -0.3972272
-0.038337346 -0.11622779 -0.5589741 -0.15631494 -0.22247481 -0.6329928 -0.2144043 0.07978836
-0.28703943 -0.19762078 -0.18858792 -0.034903735 -0.19301124 -0.106347516 0.16704977 0.14588311
-0.22941484 -1.1849849 0.104245245 -0.54712164 -0.13237645 -0.66492474 -0.96799237 -0.42238542
-0.45508197 -0.5372853 -0.66585326 -0.22263247 -0.1752988 -0.8823655 -0.6468582 -0.35419914
-0.16249704 -0.1092921 -0.2781024 -0.2965527 -0.0008453019 -0.4688038 -0.3953049 -0.6231835
-0.3813763 -0.94156796 -0.21760985 -0.7000055 -0.34849793 -0.19144869 -0.20223662 0.23132867
0.22359419 0.27071917 -0.2398852 0.35686016 0.020700894 0.1621927 0.17558752 0.42749488
-0.055824667 -0.27907935 0.11109245 -0.13366278 0.06236118 -0.27954748 0.17097771 -0.2957648
-0.062502414 0.08271256 -0.47683287 -1.3703644 -0.39847365 -0.43823063 -0.016413383 -0.3916084
-1.0582415 -0.21060954 -0.06407206 -0.1663823 -0.26489207 -1.409346 -0.14976063 -0.07248741
-0.39636886 -0.31285688 -0.8589837 -0.4092644 -0.2627499 -0.05498248 -0.16400445 -0.49625665
-0.3916434 -0.27177045 -0.8839605 -0.7909594 -0.15860733 -0.51666814 -0.39357722 -0.70161885
-0.44955462 -0.36845323 -0.2505864 -0.48689073 -0.17869934 -0.092309654 0.053802483 -0.37829372
-0.15316524 -0.69056004 0.048185173 0.036654837 -0.4099862 -0.47932997 -0.22089453 -0.20862776
00000000: 94fe 7f3e a721 acbf d795 d5be 61f4 31bf
00000010: 3e7a f4bb 869f 45bf 3ed7 0ebf 1db8 cdbe
00000020: c3ec 70bf 90e5 e7be a970 b03e 3444 933d
00000030: 3deb 8f3e fca0 493c 86d9 febd d7d2 57be
00000040: 5fb2 c73e 8a51 9e3d 243e a5be 0234 48c0
00000050: 2acb 33bc 19e4 3d3e 7655 483e 4d78 d7bc
00000060: 663c 65be 4b37 95bc 1607 63be c198 b1bd
00000070: 8261 723e 7d88 6d3e d046 c1bd 5a58 8cbf
00000080: ac27 7abd 0668 8bbf 20f1 69bd 9f8a 87be
00000090: 90f0 5fbf 5d60 10bf fcbc c4be b27c acbe
000000a0: 2f01 2c3e 3cb8 dfbe 58e6 4fbf 9247 d2be
000000b0: cedb 72bf 7bf2 30bf 6191 163d dbb1 5abe
000000c0: 8511 22bf a62c a5bf e48a 433d 7112 22bf
000000d0: 846c 46bf 40d8 b0bb 03ea 84bf 4d85 5cbf
000000e0: 53b2 e6be 79cc 59be 972c 49be 60a5 10bf
000000f0: 9e4e e8be 8bf0 14bf 038f 08bf f840 2fbf
00000100: e014 c8be cf39 45be 547d f1be af97 cdbe
00000110: 891d 10bf 97c0 31bf 9f20 04bf d8e3 22bf
00000120: 1272 51bc efc5 9dbe 62dc b23c d545 91be
00000130: fd80 1ebf 9e13 15bf 3cca b0be f499 b2bf
00000140: 697f 43be e18c 48bf db44 fc3d 03cc 5ebf
00000150: 9b03 5e3e 0d64 6dbe e737 5fbf a473 9cbe
00000160: 92c4 14bf 832a 79bf 26cb d2be a072 37bf
00000170: 9d44 4bbd 7356 56bf ca5b 5dbe f282 09be
00000180: ec6f 29bf ccd8 0ebf 1b6f 1abf 8b19 cebe
00000190: 3a34 1cbc 0dae f6be 3168 b7be fcfb 29bf
000001a0: 3fb8 d9be 92c3 c73d 64cf a4bd 1b2d 9fbe
000001b0: 74be 97be 6cb3 17bf 043f d3be db53 79bd
000001c0: 6624 efbd 9f90 58bf 923b cdbe f2d0 bbbc
000001d0: f21d 34bd a538 113d 1552 13be 3803 edbd
000001e0: bb79 06bf 2330 19bf 11b3 4e3d 878d 78bf
000001f0: 9780 d53e 74b7 debe 7944 35bf b1e9 06bf
00000200: 65de 88bf f818 8b3d 600d aabd 27bb d13c
00000210: 2eb8 e5be ecdb 87be cde8 87bf e94b 32bf
00000220: 61f1 4e3e dbd4 24bf ff8d e6be ec5c 85bf
00000230: 0421 b23e c586 5dbf 6fe0 9abe 5d61 cbbe
00000240: 9f07 1dbd d608 eebd ed18 0fbf 0611 20be
00000250: 70d0 63be d10b 22bf cd8c 5bbe 1468 a33d
00000260: d5f6 92be 1a5d 4abe 311d 41be 38f7 0ebd
00000270: bda4 45be bacc d9bd 180f 2b3e 6262 153e
00000280: b9eb 6abe 96ad 97bf 887e d53d 2a10 0cbf
00000290: b18d 07be 8238 2abf 59ce 77bf e742 d8be
000002a0: 8100 e9be 888b 09bf 5c75 2abf c4f9 63be
000002b0: 8781 33be b5e2 61bf 8098 25bf 9759 b5be
000002c0: a065 26be 89d4 dfbd 7063 8ebe c1d5 97be
000002d0: 4097 5dba 0d07 f0be 6765 cabe f488 1fbf
000002e0: c143 c3be 990a 71bf 1ed5 5ebe 8f33 33bf
000002f0: 526e b2be 200b 44be 1e17 4fbe 6ce1 6c3e
00000300: e0f5 643e b49b 8a3e 77a4 75be 60b6 b63e
00000310: ec94 a93c d815 263e 37cd 333e 9ce0 da3e
00000320: 68a8 64bd 7de3 8ebe 7084 e33d e5de 08be
00000330: 706e 7f3d d920 8fbe c814 2f3e 7c6e 97be
00000340: 4401 80bd 3465 a93d 7023 f4be 1a68 afbf
00000350: bd04 ccbe c45f e0be 5c75 86bc e580 c8be
00000360: 7574 87bf 07aa 57be 3638 83bd 1f60 2abe
00000370: ef9f 87be 7365 b4bf da5a 19be 4774 94bd
00000380: dcf0 cabe c72e a0be 5be6 5bbf 1a8b d1be
00000390: 2887 86be 4f35 61bd c8f0 27be 5a15 febe
000003a0: 7c85 c8be 7f25 8bbe 3c4b 62bf 517c 4abf
000003b0: f669 22be 5d44 04bf f482 c9be 4b9d 33bf
000003c0: 062c e6be e7a5 bcbe dc4c 80be be49 f9be
000003d0: f6fc 36be d80c bdbd fe5f 5c3d b7af c1be
000003e0: 59d7 1cbe 8bc8 30bf d15d 453d 6223 163d
000003f0: b6e9 d1be bd6a f5be 2d32 62be 84a2 55be

fc1.bias f4 [64]
-0.010488715 0.2083105 -0.31779116 0.10862325 0.88790596 0.5164586 0.6703245 0.27493906
-0.0027179096 0.29153 0.95377743 1.0512953 -0.023641212 0.78332937 -0.003379476 -0.1898577
0.10666792 0.7092153 0.34210083 -0.184134 -0.113904804 0.11056688 0.09649166 0.3384512
0.75630206 0.8808185 1.2986935 0.45209426 0.18440759 -0.25397864 0.07614294 -0.21479699
0.23435959 -0.015922537 0.80875456 -0.08409345 0.081700765 0.1564672 0.6863715 0.10351828
0.4171665 -0.010717183 0.10350835 0.07410342 1.0975403 0.45418918 -0.057958484 1.2404761
1.052722 0.35319188 -0.015180326 0.8651517 -0.26034096 0.36045912 1.0742786 -0.036562294
0.7330707 0.9411123 -0.3111894 -0.25134742 -0.24868572 -0.015298683 1.1530579 0.19040585
00000000: dcd8 2bbc 594f 553e 86b5 a2be de75 de3d
00000010: ce4d 633f a136 043f 639a 2b3f d0c4 8c3e
00000020: f51e 32bb 6c43 953e c22a 743f d890 863f
00000030: 37ab c1bc 4688 483f 337a 5dbb 0f6a 42be
00000040: b674 da3d 228f 353f d727 af3e a08d 3cbe
00000050: ec46 e9bd e370 e23d 6b9d c53d 7a49 ad3e
00000060: 039d 413f 527d 613f 973b a63f e678 e73e
00000070: 58d5 3c3e 7d09 82be d4f0 9b3d bef3 5bbe
00000080: f6fb 6f3e fb6f 82bc 8a0a 4f3f 3039 acbd
00000090: bb52 a73d f038 203e 0bb6 2f3f 6401 d43d
000000a0: d996 d53e 2097 2fbc 30fc d33d 89c3 973d
000000b0: 337c 8c3f 7c8b e83e e065 6dbd ecc7 9e3f
000000c0: 98bf 863f 91d5 b43e e7b6 78bc 957a 5d3f
000000d0: 694b 85be 198e b83e f681 893f 58c2 15bd
000000e0: 85aa 3b3f bcec 703f 3854 9fbe 9cb0 80be
000000f0: 78a7 7ebe 54a7 7abc 6797 933f c0f9 423e

fc2.weight f4 [64, 64]
-0.17494097 -0.036728892 -0.09541051 -0.07779846 -0.08156636 -0.060826674 -0.16061027 -0.08007632
-0.1172543 0.06407093 -0.08576188 0.029843379 0.046332598 -0.006424144 -0.071415834 -0.06794894
-0.03666225 -0.015675582 -0.0316906 0.055667497 -0.1133679 -0.11895834 0.0813963 0.002574987
0.02049007 -0.04548596 -0.015535388 -0.032922566 -0.06589848 -0.100609735 -0.013496952 -0.08717193
-0.05716525 0.053211126 -0.13001831 0.019829556 -0.089133546 -0.13238509 -0.19534844 -0.18230808
-0.102222085 -0.07675238 -0.0137749445 -0.057904206 0.008840611 0.004696548 -0.04087925 0.04101077
-0.09909195 0.085931644 0.046928436 0.07194243 0.0336601 0.058553204 -0.046112027 -0.067323
-0.11933104 -0.027235467 0.118624926 -0.059963644 -0.0024042279 -0.062054515 -0.012368641 -0.004266537
-0.0435746 1.2810123 -0.084639065 -0.2358324 -0.656641 -0.2349378 0.17669857 -0.010955498
-0.083082244 0.027283844 0.09677364 0.23121388 -0.10138598 -0.44736645 0.07986849 0.10208827
-0.21698894 0.0936238 -0.044528242 -0.15595143 0.044548452 -0.40763974 -0.34192294 -0.28088677
-0.015258036 0.29372767 -1.0917026 -0.13398105 0.10020466 0.06710553 -0.14802174 -0.03351997
0.031454414 -0.10787545 0.30232644 -0.06487423 -0.1537347 0.7539056 0.19940336 -0.23649909
0.06655044 0.108113155 -0.30390984 -0.009503555 0.30448744 0.36174232 -0.0992371 0.675906
0.82016534 0.35477042 0.1123447 0.5476888 0.06465176 -0.19914553 1.3024561 0.054729253
-0.23928931 0.039940283 -0.13535562 -0.04981932 0.109521315 0.07192765 0.95993674 0.035915777
-0.13377663 -0.12349782 0.10603966 -0.06688099 0.024829473 0.07478665 -0.09546275 0.09324388
0.07049482 0.100477524 -0.045433454 -0.06579296 -0.0027103573 0.08049013 0.10433956 0.038280368
-0.06334788 0.019954016 0.01579629 0.005498424 -0.048099175 0.02456242 0.06706613 -0.04408359
-0.12939729 0.04254594 0.047995497 -0.055455897 -0.04214834 0.0051534027 -0.13867083 0.10005143
0.07277253 -0.020937618 0.007194684 -0.11495213 -0.13911007 0.071404964 0.07374797 -0.1165491
-0.019314079 -0.017209113 -0.01353048 0.039809488 -0.13610004 -0.09993835 0.02277331 0.09800804
0.05485921 -0.041798074 0.120767415 0.021117225 -0.09646629 0.051403046 -0.023528006 -0.012431338
0.038759608 -0.09918995 -0.05600831 0.0010202825 -0.0341309 0.061966524 -0.0029045315 -0.0052799624
0.09531075 -0.007201731 -0.025859505 -0.072892755 0.05936314 0.02373764 -0.036474958 0.09470531
-0.08609925 -0.097284585 -0.08360082 -0.040882766 -0.071150884 -0.032462537 -0.07067561 0.117552534
-0.016965762 -0.015966818 -0.024016261 -0.06279832 0.11404501 -0.070915565 0.04258126 -0.12202963
0.030615017 -0.07388465 -0.06346473 0.109662294 0.046518207 -0.0620033 -0.039520785 -0.09677875
0.1221599 -0.11411987 -0.051186323 0.04713887 0.04222688 -0.09864782 -0.030062646 -0.04145558
0.120294034 -0.008090094 0.10914047 -0.06289323 0.031875953 0.073254466 0.10091093 -0.06668842
-0.022307754 -0.04675065 -0.04156941 0.076409 0.09356953 -0.0056328624 -0.121589124 0.06390938
-0.058510184 -0.013481632 0.10960966 -0.100461006 0.070733845 0.02396582 -0.11349842 0.030489385
00000000: ba23 33be 0971 16bd 9666 c3bd cd54 9fbd
00000010: 440c a7bd 6425 79bd 0577 24be 0eff a3bd
00000020: 0623 f0bd 9f37 833d eda3 afbd 1a7a f43c
00000030: 40c7 3d3d a081 d2bb 7742 92bd d028 8bbd
00000040: 282b 16bd 146a 80bc 01ce 01bd 9a03 643d
00000050: 6e2d e8bd 6ea0 f3bd 1ab3 a63d 1dc1 283b
00000060: cbda a73c 7c4f 3abd 2488 7ebc d0d9 06bd
00000070: c8f5 86bd 7a0c cebd 5222 5dbc 3287 b2bd
00000080: 1c26 6abd e9f3 593d 8523 05be 9871 a23c
00000090: a68b b6bd f58f 07be 6c09 48be f8ae 3abe
000000a0: d059 d1bd 5a30 9dbd 4eb0 61bc f62c 6dbd
000000b0: 36d8 103c 80e5 993b 0071 27bd e9fa 273d
000000c0: b8f0 cabd eefc af3d 0838 403d 8e56 933d
000000d0: 2cdf 093d 7cd5 6f3d f7df 3cbd a4e0 89bd
000000e0: d563 f4bd ea1c dfbc a0f1 f23d 709c 75bd
000000f0: 4090 1dbb e02c 7ebd d7a5 4abc 4ece 8bbb
00000100: 487b 32bd 36f8 a33f 3f57 adbd 0c7e 71be
00000110: a019 28bf 8993 70be 78f0 343e b07e 33bc
00000120: 0627 aabd 5e82 df3c 4231 c63d 55c3 6c3e
00000130: 74a3 cfbd 370d e5be 1792 a33d a813 d13d
00000140: 5932 5ebe d6bd bf3d 3f63 36bd bbb1 1fbe
00000150: 7078 363d 28b6 d0be 8610 afbe 64d0 8fbe
00000160: d7fc 79bc 7963 963e e9bc 8bbf 5432 09be
00000170: 1a38 cd3d a06e 893d 0393 17be 3c4c 09bd
00000180: 58d6 003d ceed dcbd 88ca 9a3e c8dc 84bd
00000190: a16c 1dbe f5ff 403f 6530 4c3e d12c 72be
000001a0: 994b 883d 6e6a dd3d 129a 9bbe ccb4 1bbc
000001b0: c7e5 9b3e 4a36 b93e d23c cbbd 2d08 2d3f
000001c0: 5bf6 513f 78a4 b53e fa14 e63d 5535 0c3f
000001d0: 2468 843d ceec 4bbe e2b6 a63f c82b 603d
000001e0: 4208 75be 6c98 233d aa9a 0abe 580f 4cbd
000001f0: b64c e03d ce4e 933d 6abe 753f 6c1c 133d
00000200: befc 08be 6dec fcbd 522b d93d e7f8 88bd
00000210: 2e67 cb3c be29 993d f981 c3bd a6f6 be3d
00000220: 975f 903d 29c7 cd3d 6e18 3abd 76be 86bd
00000230: 40a0 31bb 02d8 a43d fbaf d53d e0cb 1c3d
00000240: 89bc 81bd 9b76 a33c 3967 813c 202c b43b
00000250: a403 45bd 2137 c93c f859 893d ff90 34bd
00000260: b980 04be a744 2e3d ed96 443d b925 63bd
00000270: bda3 2cbd e0dd a83b baff 0dbe c4e7 cc3d
00000280: c409 953d 5e85 abbc 62c1 eb3b 066c ebbd
00000290: df72 0ebe c43c 923d 2d09 973d 4bb1 eebd
000002a0: 8f38 9ebc 20fa 8cbc f2ae 5dbc 460f 233d
000002b0: cf5d 0bbe 7aac ccbd 188f ba3c 70b8 c83d
000002c0: 0db4 603d 7534 2bbd e854 f73d 08fe ac3c
000002d0: 1e90 c5bd 008c 523d cebd c0bc d0ac 4bbc
000002e0: 65c2 1e3d 1a24 cbbd f868 65bd 00bb 853a
000002f0: d8cc 0bbd 9cd0 7d3d f459 3ebb 8903 adbb
00000300: 4832 c33d 80fc ebbb 50d7 d3bc cc48 95bd
00000310: c426 733d 7075 c23c c466 15bd dcf4 c13d
00000320: ce54 b0bd 243d c7bd e836 abbd b074 27bd
00000330: 8eb7 91bd 70f7 04bd 60be 90bd 62bf f03d
00000340: c8fb 8abc d8cc 82bc c0bd c4bc 689c 80bd
00000350: 6e90 e93d 2e3c 91bd b069 2e3d acea f9bd
00000360: 58cc fa3c d650 97bd ccf9 81bd a096 e03d
00000370: e089 3e3d 2cf7 7dbd 8ce0 21bd f033 c6bd
00000380: f82e fa3d aeb7 e9bd c0a8 51bd b014 413d
00000390: 18f6 2c3d de07 cabd f045 f6bc 54cd 29bd
000003a0: b85c f63d 508c 04bc 0a85 df3d 2ace 80bd
000003b0: 5c90 023d 7006 963d 64aa ce3d f093 88bd
000003c0: c0be b6bc 9c7d 3fbd b044 2abd 527c 9c3d
000003d0: 62a1 bf3d e093 b8bb b803 f9bd ece2 823d
000003e0: 60a8 6fbd 10e2 5cbc 087b e03d 80be cdbd
000003f0: e8dc 903d f853 c43c dc71 e8bd e0c4 f93c

fc2.bias f4 [64]
-0.12670054 0.6439335 -0.07661406 -0.07552099 0.724789 -0.12960008 0.5733988 0.38526872
0.6585789 0.62803817 0.65287423 -0.024574947 0.16824505 -0.10141309 0.47219172 -0.07202585
-0.09477472 0.50057685 0.5956783 -0.11558155 -0.004576325 -0.15810573 -0.022414362 -0.12860319
-0.10563633 0.6513978 0.66329044 0.2625202 -0.15242289 -0.047487054 -0.10075521 0.71910197
-0.06907181 -0.082836896 -0.026886284 -0.14823115 0.6265641 -0.07004483 -0.10841012 0.72438973
0.6773465 0.7681815 -0.20259556 -0.14358155 -0.034741465 0.5469622 -0.0322799 0.5687691
0.8045627 -0.031281505 0.5748556 0.7351538 0.6508657 0.71263635 0.70020914 -0.043420512
-0.015740091 0.010383042 0.55193084 -0.16863118 -0.052165736 -0.121602625 -0.12272856 -0.030178405
00000000: c9bd 01be d3d8 243f d5e7 9cbd c0aa 9abd
00000010: c68b 393f e2b5 04be 44ca 123f f141 c53e
00000020: a098 283f 1cc7 203f c422 273f 6651 c9bc
00000030: 6e48 2c3e abb1 cfbd 1dc3 f13e 4a82 93bd
00000040: 4019 c2bd ce25 003f 607e 183f 05b6 ecbd
00000050: fff4 95bb 78e6 21be 539e b7bc 8eb0 03be
00000060: dc57 d8bd 02c2 263f 67cd 293f 0c69 863e
00000070: bf14 1cbe c981 42bd bf58 cebd 1117 383f
00000080: 8575 8dbd 64a6 a9bd a040 dcbc e8c9 17be
00000090: 8166 203f aa73 8fbd 2006 debd 9b71 393f
000000a0: 9566 2d3f 8ba7 443f 3675 4fbe 0b07 13be
000000b0: 114d 0ebd b705 0c3f ee37 04bd da9a 113f
000000c0: d2f7 4d3f 0921 00bd bd29 133f 0a33 3c3f
000000d0: 229f 263f 566f 363f e840 333f b5d9 31bd
000000e0: 5df1 80bc a21d 2a3c 574b 0d3f a7ad 2cbe
000000f0: bdab 55bd cc0a f9bd 1c59 fbbd b438 f7bc

fc3.weight f4 [2, 64]
-0.06491849 0.5198564 0.06858561 -0.0022470206 0.4917504 0.0049519762 0.47688636 0.35111883
0.41334367 0.56841826 0.46671912 0.018531801 -0.5062839 -0.10669948 0.46464717 -0.032769263
0.0074317413 0.6004488 0.5210705 0.047840927 0.045950104 -0.028484093 0.048091713 0.020023959
-0.05404152 0.55595887 0.40007818 -0.13715619 -0.09794457 -0.051681224 -0.047370024 0.40125787
-0.05368597 -0.05576724 -0.011198359 0.006471919 0.5166742 -0.112732455 -0.054502398 0.42048874
0.56561536 0.4628947 -0.073796846 0.09250301 -0.005780965 0.5310263 -0.07454146 -0.4991752
0.5758533 -0.09142311 0.5173651 0.4373961 0.507845 0.48353952 0.44029838 0.10602863
-0.051337942 0.10615259 0.39822614 -0.024760857 0.05573457 -0.0055865 0.021865157 -0.020950573
-0.013318996 0.4488074 0.018534347 0.06925596 0.51732874 -0.07068639 0.4355661 0.44367597
0.48948422 0.45279965 0.4515128 -0.012126479 -0.63179344 -0.08136975 0.4401541 0.007133608
-0.06894381 0.42905396 0.56857485 -0.032531828 0.08257081 -0.067612916 -0.012843633 -0.07935073
0.0784866 0.42830122 0.5447679 -0.33210582 -0.03313429 0.0006986111 -0.12891006 0.48307922
-0.08114911 0.08232529 0.006781105 -0.08228167 0.4409364 -0.011285737 -0.052453503 0.5178587
0.47568217 0.46784636 0.04151317 -0.05048414 -0.073857896 0.42649308 0.015376127 0.12162786
0.5815835 0.028183388 0.4485547 0.45666617 0.53109723 0.54274064 0.4827213 0.04373915
0.030789351 0.481998 0.562522 0.1717015 0.09952568 0.047084138 -0.019629342 0.0447154
00000000: fcf3 84bd 4f15 053f 9d76 8c3d c042 13bb
00000010: b5c6 fb3e 3044 a23b 732a f43e d9c5 b33e
00000020: c8a1 d33e dc83 113f cff5 ee3e 01d0 973c
00000030: d29b 01bf 4285 dabd 3ce6 ed3e 1039 06bd
00000040: f785 f33b 03b7 193f e064 053f d9f4 433d
00000050: 2d36 3c3d 7957 e9bc d1fb 443d 4909 a43c
00000060: a45a 5dbd 5253 0e3f 0cd7 cc3e ac72 0cbe
00000070: 2a97 c8bd b1af 53bd 1207 42bd ac71 cd3e
00000080: d2e5 5bbd 306c 64bd 5279 37bc 6412 d43b
00000090: c344 043f 46e0 e6bd e83d 5fbd 4d4a d73e
000000a0: 2bcc 103f 8900 ed3e cd22 97bd 3872 bd3d
000000b0: 406e bdbb 57f1 073f 31a9 98bd e493 ffbe
000000c0: 1f6b 133f 0a3c bbbd 0a72 043f 62f2 df3e
000000d0: 2102 023f 7e92 f73e ca6e e13e 8a25 d93d
000000e0: bc47 52bd 8766 d93d 4ce4 cb3e 48d7 cabc
000000f0: ef49 643d f50e b7bb 8f1e b33c 89a0 abbc
00000100: eb37 5abc 15ca e53e 58d5 973c 12d6 8d3d
00000110: a86f 043f 07c4 90bd 8502 df3e 7f29 e33e
00000120: ad9d fa3e 5bd5 e73e b02c e73e 24ae 46bc
00000130: 37bd 21bf 2fa5 a6bd e15b e13e 0bc1 e93b
00000140: 6a32 8dbd f6ac db3e 1f8e 113f 1840 05bd
00000150: e31a a93d a478 8abd 1a6e 52bc a382 a2bd
00000160: 95bd a03d 4c4a db3e e975 0b3f c609 aabe
00000170: d2b7 07bd ff22 373a 0001 04be 2956 f73e
00000180: 8131 a6bd 299a a83d 0834 de3b 4b83 a8bd
00000190: 6ac2 e13e d0e7 38bc 7cd9 56bd 6392 043f
000001a0: 9d8c f33e 8f89 ef3e b709 2a3d 75c8 4ebd
000001b0: cf42 97bd 4d5d da3e 27ec 7b3c 0718 f93d
000001c0: a8e2 143f d9e0 e63c f6a8 e53e 26d0 e93e
000001d0: fdf5 073f 0df1 0a3f 3f27 f73e d327 333d
000001e0: f339 fc3c 71c8 f63e 7101 103f 85d2 2f3e
000001f0: 1fd4 cb3d 4cdb 403d b7cd a0bc 7f27 373d

fc3.bias f4 [2]
0.6600026 0.37985796
00000000: eef5 283f be7c c23e
