with_traffic_light/dqn_model/models/model_ep20.pth (torch, 22969 bytes, 6 tensors)

fc1.weight f4 [64, 10]
000000 94 fe 7f 3e a7 21 ac bf d7 95 d5 be 61 f4 31 bf
       0.24999458 -1.344777 -0.4171588 -0.6951352
000010 3e 7a f4 bb 86 9f 45 bf 3e d7 0e bf 1d b8 cd be
       -0.0074608615 -0.7719654 -0.55797184 -0.4017953
000020 c3 ec 70 bf 90 e5 e7 be 17 4e 97 3e bd d3 a3 be
       -0.9411127 -0.4529233 0.29551765 -0.3199748
000030 3f d0 58 3e 52 ce d1 bd 70 79 d6 bd 21 9d 90 be
       0.2117319 -0.102444306 -0.10472381 -0.2824488
000040 e4 58 3c 3e 31 74 da 3d e4 6b a0 be e8 3c 3a c0
       0.18393284 0.10666693 -0.31332314 -2.9099674
000050 2a cb 33 bc 19 e4 3d 3e 76 55 48 3e 4d 78 d7 bc
       -0.010973731 0.18544044 0.19563851 -0.026302481
000060 66 3c 65 be 4b 37 95 bc 16 07 63 be c1 98 b1 bd
       -0.22386321 -0.018214842 -0.22170672 -0.086717136
000070 82 61 72 3e 7d 88 6d 3e 60 55 1c be 51 33 3f bf
       0.23670009 0.23196597 -0.15266943 -0.7468768
000080 00 ff 09 be 06 68 8b bf 3c f1 05 be 9f 8a 87 be
       -0.13476181 -1.089112 -0.13080305 -0.26472947
000090 a2 c1 37 bf 5d 60 10 bf fc bc c4 be b2 7c ac be
       -0.71779835 -0.5639704 -0.38425434 -0.33688885
0000a0 9c d7 4c 3e 3b e8 7c be e4 44 3b bf ba c9 a5 be
       0.20004123 -0.24697964 -0.73151994 -0.32380468
0000b0 8a fa 64 bf 25 f9 02 bf e0 81 ee 3d 83 6f fe bd
       -0.8944479 -0.51161414 0.116458654 -0.12423613
0000c0 db 29 17 bf 69 fb 8a bf f2 f2 8e bc f1 19 03 bf
       -0.5904824 -1.0857974 -0.01744983 -0.5121146
0000d0 77 8b 55 bf 79 2c 3d bd 22 b2 89 bf 1b 42 18 bf
       -0.8341593 -0.04618499 -1.0757487 -0.5947587
0000e0 45 a3 dc be 84 46 82 be 06 ed 73 be 60 a5 10 bf
       -0.43093315 -0.25444424 -0.23820886 -0.5650234
0000f0 90 be 71 be fb 86 09 bf a1 17 e6 be 35 c4 03 bf
       -0.2360785 -0.5372159 -0.44939902 -0.51471263
000100 62 d1 bf be 2c 31 8e be 31 a2 9b be 65 78 6e be
       -0.37464434 -0.2777189 -0.3039718 -0.23288114
000110 30 64 ad be ab 60 19 bf 01 6d d0 be 31 93 4d bf
       -0.338655 -0.5991313 -0.40708163 -0.8030272
000120 c1 e1 bd bd 50 9d 3d be 07 b8 eb bd f8 9f 3b be
       -0.09271575 -0.18517041 -0.1150971 -0.18322742
000130 5d 7f 04 bf 0c 2e eb be c2 a1 63 be f4 99 b2 bf
       -0.5175684 -0.45933568 -0.22229674 -1.3953233
000140 15 34 a2 be 2e b0 3d bf c8 11 9e 3a 03 cc 5e bf
       -0.3168036 -0.74096954 0.0012059743 -0.8703005
000150 ab 3a c2 3d 0d 64 6d be f7 54 53 bf a4 73 9c be
       0.09483846 -0.23182698 -0.8255152 -0.30556977
000160 92 c4 14 bf 83 2a 79 bf a4 3e 24 be e0 e0 ec be
       -0.5811244 -0.9733049 -0.1603952 -0.46265316
000170 f3 1d 9f be 63 1a 0d bf e2 9e 20 bf 4a 22 4d be
       -0.31077537 -0.5511839 -0.62742436 -0.20032611
000180 82 ff 92 be ea fb 8c be 63 bd 89 be 21 9a b8 be
       -0.28710562 -0.27535945 -0.26902303 -0.3605509
000190 ca 59 33 3d 54 bb b7 be 1b a2 67 be 55 62 f7 be
       0.0437868 -0.35885108 -0.22620432 -0.4831721
0001a0 92 7a 9c be 97 c9 fe 3d 27 ab b4 3c e0 f5 13 be
       -0.30562264 0.12440794 0.022054268 -0.14449263
0001b0 2a 71 23 be d7 45 f4 be 09 6f ea be 0f c7 b2 bd
       -0.15961137 -0.47709534 -0.45787838 -0.08729374
0001c0 5b 80 fe bd 34 9a 44 bf f5 ed d7 be 47 d6 09 be
       -0.124268256 -0.76797795 -0.42173734 -0.13460647
0001d0 88 46 d3 bd 0c a6 6d 3d 7e ed 21 be 2e d4 07 be
       -0.10316187 0.058019683 -0.15813252 -0.13264534
0001e0 14 e5 17 bf 85 ec db bd 75 6f 00 bf e8 9f 31 bf
       -0.5933392 -0.10738472 -0.5017007 -0.6938462
0001f0 1e ca 5d be 28 4b 97 be 7e 5d 0a be b6 55 81 be
       -0.21659133 -0.29549527 -0.13512227 -0.25260705
000200 8f 54 44 bf 2e 63 c8 3d ad 46 67 bd 01 dc 54 3e
       -0.76691526 0.09784542 -0.056463886 0.2078705
000210 3f a0 c6 be 20 64 46 be 6e f5 84 bf d1 ac 09 bf
       -0.38794133 -0.19374132 -1.0387399 -0.5377932
000220 0f fb 8b 3e 8e 13 12 bf 9f 96 d7 be 48 e4 5d bf
       0.2733998 -0.5706109 -0.42107102 -0.86676455
000230 04 21 b2 3e c5 86 5d bf 6f e0 9a be 5d 61 cb be
       0.34790814 -0.86533767 -0.30249354 -0.3972272
000240 9f 07 1d bd d6 08 ee bd ed 18 0f bf 06 11 20 be
       -0.038337346 -0.11622779 -0.5589741 -0.15631494
000250 70 d0 63 be d1 0b 22 bf cd 8c 5b be 14 68 a3 3d
       -0.22247481 -0.6329928 -0.2144043 0.07978836
000260 d5 f6 92 be 1a 5d 4a be 31 1d 41 be 38 f7 0e bd
       -0.28703943 -0.19762078 -0.18858792 -0.034903735
000270 bd a4 45 be ba cc d9 bd 18 0f 2b 3e 62 62 15 3e
       -0.19301124 -0.106347516 0.16704977 0.14588311
000280 4f 29 03 be 2c d0 77 bf da b6 29 3e 2a 10 0c bf
       -0.12808727 -0.9680202 0.16573659 -0.54712164
000290 13 2d 91 bd 82 38 2a bf 49 50 3f bf e7 42 d8 be
       -0.07088675 -0.66492474 -0.7473188 -0.42238542
0002a0 81 00 e9 be 88 8b 09 bf 7c b6 01 bf dd db f8 bd
       -0.45508197 -0.5372853 -0.50669074 -0.121513106
0002b0 1b 64 8d bd 7e 3e 3b bf c9 d9 0a bf b6 b8 97 be
       -0.06903859 -0.7314223 -0.54238564 -0.2963311
0002c0 42 ad 4f 3c 27 25 40 3d 84 ab fa bd fc e3 79 be
       0.012675585 0.04691043 -0.12239745 -0.24403375
0002d0 d6 ee b7 bc d8 28 97 be 8e 76 f6 be 61 79 1d bf
       -0.022452753 -0.2952335 -0.48137325 -0.61513335
0002e0 7d 9c f1 be 2d c6 23 bf ec 25 15 be 30 62 31 bf
       -0.47189704 -0.6397427 -0.14565247 -0.6929045
0002f0 51 cc ae be 20 0b 44 be 6a f7 56 be c3 7b 64 3e
       -0.34140256 -0.19144869 -0.20992818 0.22312836
000300 04 f6 58 3e fd dc 83 3e 9d ca 24 be 0c c9 ca 3e
       0.21187598 0.25754538 -0.16092916 0.39606512
000310 47 b1 1c 3d 13 5b 5c 3e b5 fd 8d 3e f2 5a c3 3e
       0.038255002 0.21519117 0.27732626 0.38155323
000320 68 a8 64 bd 7d e3 8e be 70 84 e3 3d e5 de 08 be
       -0.055824667 -0.27907935 0.11109245 -0.13366278
000330 70 6e 7f 3d d9 20 8f be c8 14 2f 3e 7c 6e 97 be
       0.06236118 -0.27954748 0.17097771 -0.2957648
000340 44 01 80 bd 34 65 a9 3d 88 8d 06 bf 37 63 7e bf
       -0.062502414 0.08271256 -0.5255971 -0.9937014
000350 11 bb dd be c4 5f e0 be d6 eb 50 bd e5 80 c8 be
       -0.43306783 -0.43823063 -0.05100616 -0.3916084
000360 40 ad 72 bf 07 aa 57 be 36 38 83 bd 1f 60 2a be
       -0.9479561 -0.21060954 -0.06407206 -0.1663823
000370 79 56 9e be 6b 8c 89 bf f4 54 2c be 47 74 94 bd
       -0.30925348 -1.0745977 -0.16829282 -0.07248741
000380 f1 6d d4 be c7 2e a0 be 59 78 4e bf 1a 8b d1 be
       -0.4149013 -0.31285688 -0.80652386 -0.4092644
000390 28 87 86 be 4f 35 61 bd 4f c7 47 be 76 8e ab be
       -0.2627499 -0.05498248 -0.19509624 -0.33507127
0003a0 e8 d6 ee be d0 4b 8d be 2c 2d 75 bf c4 3a ff be
       -0.46648335 -0.27596903 -0.9577205 -0.49849522
0003b0 b6 d8 ca bd 1e 96 05 bf d2 26 cc be 4b 9d 33 bf
       -0.099046156 -0.52182186 -0.39873368 -0.70161885
0003c0 b1 e3 cd be c2 74 9b be b8 28 f8 bd 05 c9 a6 be
       -0.40212777 -0.30362517 -0.121171415 -0.3257524
0003d0 49 60 5f bd 32 a1 74 bd 2c 04 08 3e 19 19 48 be
       -0.054535184 -0.05972404 0.13282841 -0.19540824
0003e0 f3 86 48 bc c3 9b 21 bf 7c 4a fb 3b c1 72 90 3d
       -0.012239206 -0.631283 0.0076687913 0.070531376
0003f0 c6 cb bb be 6b 6d c6 be fb 17 54 be 24 f1 93 be
       -0.36678904 -0.38755354 -0.20712273 -0.28894913

fc1.bias f4 [64]
000000 dc d8 2b bc 1c 57 49 3e 86 b5 a2 be 63 af 3a 3e
       -0.010488715 0.19662136 -0.31779116 0.18230967
000010 34 a8 6d 3f cf 54 0c 3f be 68 5c 3f f1 25 d9 3e
       0.9283478 0.5481691 0.86097324 0.4241176
000020 c7 3c f4 3d 1d 11 46 3f 5a 87 7b 3f 48 57 6f 3f
       0.11925655 0.7736986 0.98253405 0.93492556
000030 5c 97 2a 3f ac 4c 52 3f 33 7a 5d bb 0f 6a 42 be
       0.66637206 0.8214824 -0.003379476 -0.1898577
000040 69 07 39 3d bd 26 59 3f 52 f3 db 3e 75 a4 30 be
       0.045173083 0.84824735 0.42959076 -0.17250235
000050 ec 46 e9 bd fd a4 14 3e aa 91 eb 3d 83 85 d1 3e
       -0.113904804 0.14516063 0.115023926 0.40922174
000060 d7 52 49 3f 3d c1 4b 3f f4 71 a2 3f b2 c3 09 3f
       0.7864203 0.79591733 1.2691026 0.5381423
000070 ce 31 ee 3e 7d 09 82 be 24 e6 93 3c be f3 5b be
       0.46522373 -0.25397864 0.018054076 -0.21479699
000080 c8 8e 39 3f fb 6f 82 bc 8d 1c 69 3f 30 39 ac bd
       0.7248349 -0.015922537 0.9105919 -0.08409345
000090 de b3 ed 3e 5f 52 a4 3e e3 1b 5b 3f 2c 73 07 3d
       0.4642629 0.32094094 0.85589427 0.03306882
0000a0 40 c0 56 3f 20 97 2f bc 8f ac ef 3c 9b 74 87 3d
       0.838871 -0.010717183 0.029257087 0.066140376
0000b0 12 4f 7e 3f 22 e0 07 3f e0 65 6d bd 64 39 8c 3f
       0.993394 0.53076375 -0.057958484 1.0955014
0000c0 17 99 63 3f e4 b6 e5 3e e7 b6 78 bc d9 1c 80 3f
       0.8890547 0.44866097 -0.015180326 1.0008804
0000d0 69 4b 85 be db a2 e3 3e 19 cc 66 3f 58 c2 15 bd
       -0.26034096 0.44460186 0.9015518 -0.036562294
0000e0 41 f8 4d 3f f9 60 82 3f 38 54 9f be 9c b0 80 be
       0.8045693 1.0185844 -0.3111894 -0.25134742
0000f0 78 a7 7e be 54 a7 7a bc 80 d0 79 3f 2e a7 f6 3e
       -0.24868572 -0.015298683 0.9758377 0.48174423

fc2.weight f4 [64, 64]
000000 ba 23 33 be 09 71 16 bd 96 66 c3 bd cd 54 9f bd
       -0.17494097 -0.036728892 -0.09541051 -0.07779846
000010 44 0c a7 bd 64 25 79 bd 05 77 24 be 0e ff a3 bd
       -0.08156636 -0.060826674 -0.16061027 -0.08007632
000020 06 23 f0 bd 9f 37 83 3d ed a3 af bd 1a 7a f4 3c
       -0.1172543 0.06407093 -0.08576188 0.029843379
000030 40 c7 3d 3d a0 81 d2 bb 77 42 92 bd d0 28 8b bd
       0.046332598 -0.006424144 -0.071415834 -0.06794894
000040 28 2b 16 bd 14 6a 80 bc 01 ce 01 bd 9a 03 64 3d
       -0.03666225 -0.015675582 -0.0316906 0.055667497
000050 6e 2d e8 bd 6e a0 f3 bd 1a b3 a6 3d 1d c1 28 3b
       -0.1133679 -0.11895834 0.0813963 0.002574987
000060 cb da a7 3c 7c 4f 3a bd 24 88 7e bc d0 d9 06 bd
       0.02049007 -0.04548596 -0.015535388 -0.032922566
000070 c8 f5 86 bd 7a 0c ce bd 52 22 5d bc 32 87 b2 bd
       -0.06589848 -0.100609735 -0.013496952 -0.08717193
000080 1c 26 6a bd e9 f3 59 3d 85 23 05 be 98 71 a2 3c
       -0.05716525 0.053211126 -0.13001831 0.019829556
000090 a6 8b b6 bd f5 8f 07 be 6c 09 48 be f8 ae 3a be
       -0.089133546 -0.13238509 -0.19534844 -0.18230808
0000a0 d0 59 d1 bd 5a 30 9d bd 4e b0 61 bc f6 2c 6d bd
       -0.102222085 -0.07675238 -0.0137749445 -0.057904206
0000b0 36 d8 10 3c 80 e5 99 3b 00 71 27 bd e9 fa 27 3d
       0.008840611 0.004696548 -0.04087925 0.04101077
0000c0 b8 f0 ca bd ee fc af 3d 08 38 40 3d 8e 56 93 3d
       -0.09909195 0.085931644 0.046928436 0.07194243
0000d0 2c df 09 3d 7c d5 6f 3d f7 df 3c bd a4 e0 89 bd
       0.0336601 0.058553204 -0.046112027 -0.067323
0000e0 d5 63 f4 bd ea 1c df bc a0 f1 f2 3d 70 9c 75 bd
       -0.11933104 -0.027235467 0.118624926 -0.059963644
0000f0 40 90 1d bb e0 2c 7e bd d7 a5 4a bc 4e ce 8b bb
       -0.0024042279 -0.062054515 -0.012368641 -0.004266537
000100 48 7b 32 bd f0 3a a6 3f 3f 57 ad bd 61 81 a0 bd
       -0.0435746 1.2986736 -0.084639065 -0.07837177
000110 34 c3 2c bf f9 c0 7d be 30 47 99 3e 55 c8 14 3e
       -0.67485356 -0.24780644 0.29937124 0.14529546
000120 66 ab bd bd b1 77 2a 3e 6a 10 3a 3d 41 e3 04 3e
       -0.09261207 0.16647221 0.04542581 0.12977315
000130 73 e3 c8 3b 13 a9 fa be 17 92 a3 3d a8 13 d1 3d
       0.0061306297 -0.48957118 0.07986849 0.10208827
000140 c0 e1 44 bd ce 84 21 3e d0 54 a5 bd 8b 0e 82 3d
       -0.048066854 0.15773317 -0.08072817 0.0635043
000150 70 78 36 3d 99 9c 58 be 9b b4 2c be af b2 a2 be
       0.044548452 -0.21153487 -0.1686577 -0.3177695
000160 ea 19 9c bb f4 15 8c 3e ac bb 8f bf 59 cc 1e be
       -0.0047638314 0.273605 -1.1229148 -0.1550764
000170 03 58 8b 3e a0 6e 89 3d cd f2 3d 3c 3c 4c 09 bd
       0.27215585 0.06710553 0.011593533 -0.03351997
000180 7c af 58 3e ce ed dc bd 46 b9 e8 3e c8 dc 84 bd
       0.21160692 -0.10787545 0.45453852 -0.06487423
000190 1c a7 44 bd 9e 03 83 3f 79 42 2a 3e 4b 06 a4 bd
       -0.04801093 1.0235479 0.1662692 -0.08009013
0001a0 8e c6 61 be 6e 6a dd 3d 8f 50 08 be 79 52 a7 3d
       -0.22048399 0.108113155 -0.1331198 0.08170027
0001b0 ea c1 39 3e 49 97 02 3f d2 3c cb bd 65 fc 1b 3f
       0.18140379 0.5101209 -0.0992371 0.60932
0001c0 c2 ca 1f 3f ec 2d 0a 3f fa 14 e6 3d fe 43 07 3f
       0.6241876 0.5397632 0.1123447 0.5283812
0001d0 24 68 84 3d 19 84 71 be b7 a0 8d 3f c8 2b 60 3d
       0.06465176 -0.23585548 1.1064671 0.054729253
0001e0 41 bd 82 be d5 ef a2 3c aa 9a 0a be 58 0f 4c bd
       -0.25535014 0.019889751 -0.13535562 -0.04981932
0001f0 b6 4c e0 3d ce 4e 93 3d 35 8a 55 3f 50 d3 54 3e
       0.109521315 0.07192765 0.8341401 0.20783734
000200 be fc 08 be 6d ec fc bd 52 2b d9 3d e7 f8 88 bd
       -0.13377663 -0.12349782 0.10603966 -0.06688099
000210 2e 67 cb 3c be 29 99 3d f9 81 c3 bd a6 f6 be 3d
       0.024829473 0.07478665 -0.09546275 0.09324388
000220 97 5f 90 3d 29 c7 cd 3d 6e 18 3a bd 76 be 86 bd
       0.07049482 0.100477524 -0.045433454 -0.06579296
000230 40 a0 31 bb 02 d8 a4 3d fb af d5 3d e0 cb 1c 3d
       -0.0027103573 0.08049013 0.10433956 0.038280368
000240 89 bc 81 bd 9b 76 a3 3c 39 67 81 3c 20 2c b4 3b
       -0.06334788 0.019954016 0.01579629 0.005498424
000250 a4 03 45 bd 21 37 c9 3c f8 59 89 3d ff 90 34 bd
       -0.048099175 0.02456242 0.06706613 -0.04408359
000260 b9 80 04 be a7 44 2e 3d ed 96 44 3d b9 25 63 bd
       -0.12939729 0.04254594 0.047995497 -0.055455897
000270 bd a3 2c bd e0 dd a8 3b ba ff 0d be c4 e7 cc 3d
       -0.04214834 0.0051534027 -0.13867083 0.10005143
000280 c4 09 95 3d 5e 85 ab bc 62 c1 eb 3b 06 6c eb bd
       0.07277253 -0.020937618 0.007194684 -0.11495213
000290 df 72 0e be c4 3c 92 3d 2d 09 97 3d 4b b1 ee bd
       -0.13911007 0.071404964 0.07374797 -0.1165491
0002a0 8f 38 9e bc 20 fa 8c bc f2 ae 5d bc 46 0f 23 3d
       -0.019314079 -0.017209113 -0.01353048 0.039809488
0002b0 cf 5d 0b be 7a ac cc bd 18 8f ba 3c 70 b8 c8 3d
       -0.13610004 -0.09993835 0.02277331 0.09800804
0002c0 0d b4 60 3d 75 34 2b bd e8 54 f7 3d 08 fe ac 3c
       0.05485921 -0.041798074 0.120767415 0.021117225
0002d0 1e 90 c5 bd 00 8c 52 3d ce bd c0 bc d0 ac 4b bc
       -0.09646629 0.051403046 -0.023528006 -0.012431338
0002e0 65 c2 1e 3d 1a 24 cb bd f8 68 65 bd 00 bb 85 3a
       0.038759608 -0.09918995 -0.05600831 0.0010202825
0002f0 d8 cc 0b bd 9c d0 7d 3d f4 59 3e bb 89 03 ad bb
       -0.0341309 0.061966524 -0.0029045315 -0.0052799624
000300 48 32 c3 3d 80 fc eb bb 50 d7 d3 bc cc 48 95 bd
       0.09531075 -0.007201731 -0.025859505 -0.072892755
000310 c4 26 73 3d 70 75 c2 3c c4 66 15 bd dc f4 c1 3d
       0.05936314 0.02373764 -0.036474958 0.09470531
000320 ce 54 b0 bd 24 3d c7 bd e8 36 ab bd b0 74 27 bd
       -0.08609925 -0.097284585 -0.08360082 -0.040882766
000330 8e b7 91 bd 70 f7 04 bd 60 be 90 bd 62 bf f0 3d
       -0.071150884 -0.032462537 -0.07067561 0.117552534
000340 c8 fb 8a bc d8 cc 82 bc c0 bd c4 bc 68 9c 80 bd
       -0.016965762 -0.015966818 -0.024016261 -0.06279832
000350 6e 90 e9 3d 2e 3c 91 bd b0 69 2e 3d ac ea f9 bd
       0.11404501 -0.070915565 0.04258126 -0.12202963
000360 58 cc fa 3c d6 50 97 bd cc f9 81 bd a0 96 e0 3d
       0.030615017 -0.07388465 -0.06346473 0.109662294
000370 e0 89 3e 3d 2c f7 7d bd 8c e0 21 bd f0 33 c6 bd
       0.046518207 -0.0620033 -0.039520785 -0.09677875
000380 f8 2e fa 3d ae b7 e9 bd c0 a8 51 bd b0 14 41 3d
       0.1221599 -0.11411987 -0.051186323 0.04713887
000390 18 f6 2c 3d de 07 ca bd f0 45 f6 bc 54 cd 29 bd
       0.04222688 -0.09864782 -0.030062646 -0.04145558
0003a0 b8 5c f6 3d 50 8c 04 bc 0a 85 df 3d 2a ce 80 bd
       0.120294034 -0.008090094 0.10914047 -0.06289323
0003b0 5c 90 02 3d 70 06 96 3d 64 aa ce 3d f0 93 88 bd
       0.031875953 0.073254466 0.10091093 -0.06668842
0003c0 c0 be b6 bc 9c 7d 3f bd b0 44 2a bd 52 7c 9c 3d
       -0.022307754 -0.04675065 -0.04156941 0.076409
0003d0 62 a1 bf 3d e0 93 b8 bb b8 03 f9 bd ec e2 82 3d
       0.09356953 -0.0056328624 -0.121589124 0.06390938
0003e0 60 a8 6f bd 10 e2 5c bc 08 7b e0 3d 80 be cd bd
       -0.058510184 -0.013481632 0.10960966 -0.100461006
0003f0 e8 dc 90 3d f8 53 c4 3c dc 71 e8 bd e0 c4 f9 3c
       0.070733845 0.02396582 -0.11349842 0.030489385

fc2.bias f4 [64]
000000 c9 bd 01 be 42 5b 21 3f d5 e7 9c bd c0 aa 9a bd
       -0.12670054 0.63029873 -0.07661406 -0.07552099
000010 4e e6 39 3f e2 b5 04 be 30 d1 11 3f d4 d2 d9 3e
       0.7261704 -0.12960008 0.5695982 0.42543662
000020 55 a4 2e 3f 32 dd 1a 3f 73 c0 27 3f 66 51 c9 bc
       0.682195 0.6049377 0.6552803 -0.024574947
000030 fa 69 8b 3e ab b1 cf bd e8 46 f2 3e 4a 82 93 bd
       0.2722929 -0.10141309 0.47319722 -0.07202585
000040 08 0b 81 bd cc fd f0 3e a9 fd 17 3f 45 96 be bd
       -0.06300932 0.47068632 0.5937143 -0.093060054
000050 6e 2f 33 3d 14 53 05 be a0 a5 78 3c f7 54 c6 bd
       0.043746404 -0.13019973 0.015176207 -0.096841745
000060 dc 57 d8 bd fe 04 21 3f df ee 31 3f 6f 4c b1 3e
       -0.10563633 0.6289824 0.69505113 0.34628627
000070 bf 14 1c be c9 81 42 bd bf 58 ce bd 5d e3 3e 3f
       -0.15242289 -0.047487054 -0.10075521 0.7456568
000080 85 75 8d bd 64 a6 a9 bd 1b df 9f 3b e8 c9 17 be
       -0.06907181 -0.082836896 0.004878891 -0.14823115
000090 fc 26 1d 3f aa 73 8f bd 20 06 de bd f4 49 3f 3f
       0.6138761 -0.07004483 -0.10841012 0.7472222
0000a0 ef 6f 28 3f 87 a0 45 3f ea 91 c1 bd 0b 07 13 be
       0.657958 0.7719807 -0.09451659 -0.14358155
0000b0 11 4d 0e bd a7 c5 07 3f ee 37 04 bd 0b c6 8e 3e
       -0.034741465 0.5303597 -0.0322799 0.2788547
0000c0 47 aa 4a 3f 09 21 00 bd 5c 42 10 3f 55 52 3f 3f
       0.7916607 -0.031281505 0.56351256 0.74735004
0000d0 94 60 26 3f 17 eb 37 3f 5b 92 36 3f 65 65 5f 3d
       0.64991117 0.71843094 0.7131707 0.054540057
0000e0 5d f1 80 bc a9 28 b9 bb 47 76 16 3f 76 a9 be 3c
       -0.015740091 -0.005650599 0.58774227 0.023274165
0000f0 0a b9 1e 3b cc 0a f9 bd c8 4a ba bd b4 38 f7 bc
       0.0024219179 -0.121602625 -0.09096295 -0.030178405

fc3.weight f4 [2, 64]
000000 fc f3 84 bd 62 73 ed 3e 9d 76 8c 3d c0 42 13 bb
       -0.06491849 0.46377093 0.06858561 -0.0022470206
000010 84 ae d8 3e 30 44 a2 3b 05 e3 da 3e 00 94 9b 3e
       0.42320645 0.0049519762 0.42751327 0.30386353
000020 a2 f2 af 3e 78 62 02 3f 8d 99 cc 3e 01 d0 97 3c
       0.34364802 0.509315 0.399609 0.018531801
000030 12 67 24 bf 42 85 da bd 5c ef d1 3e 10 39 06 bd
       -0.6421977 -0.10669948 0.4100293 -0.032769263
000040 38 49 c7 bc a7 d5 0a 3f 35 fa eb 3e d9 f4 43 3d
       -0.024326906 0.5423226 0.4608933 0.047840927
000050 85 da 87 3d a2 be 76 bd 52 ce af 3d c0 f0 3f bc
       0.06633476 -0.060240395 0.08584274 -0.011715114
000060 a4 5a 5d bd 89 0e 00 3f cf 18 ae 3e c0 60 9c be
       -0.05404152 0.5002218 0.34003302 -0.30542564
000070 2a 97 c8 bd b1 af 53 bd 12 07 42 bd ff 74 ac 3e
       -0.09794457 -0.051681224 -0.047370024 0.3368301
000080 d2 e5 5b bd 30 6c 64 bd 52 79 37 bc 64 12 d4 3b
       -0.05368597 -0.05576724 -0.011198359 0.006471919
000090 d9 8e e8 3e 46 e0 e6 bd e8 3d 5f bd 4f e1 b6 3e
       0.45421484 -0.112732455 -0.054502398 0.35718772
0000a0 7a 4b fb 3e d4 ec c9 3e 54 22 8b bb 38 72 bd 3d
       0.49081022 0.39438498 -0.0042460356 0.09250301
0000b0 40 6e bd bb 98 b1 f1 3e 31 a9 98 bd 03 fa a2 be
       -0.005780965 0.47205806 -0.07454146 -0.3183137
0000c0 6c c6 00 3f 0a 3c bb bd 68 ab eb 3e ec 8a ba 3e
       0.5030277 -0.09142311 0.4602921 0.36434114
0000d0 71 e8 df 3e eb ee d3 3e ce d2 be 3e be 99 44 3e
       0.43732026 0.41393217 0.37270206 0.19199273
0000e0 bc 47 52 bd 27 08 2d 3e 4a 67 ae 3e 0b ed 3e bd
       -0.051337942 0.16897641 0.34063178 -0.04661278
0000f0 70 5c 91 bd f5 0e b7 bb 60 34 22 bc 89 a0 ab bc
       -0.07097709 -0.0055865 -0.0099001825 -0.020950573
000100 eb 37 5a bc aa 4d b6 3e 58 d5 97 3c 12 d6 8d 3d
       -0.013318996 0.35606128 0.018534347 0.06925596
000110 e9 84 e1 3e 07 c4 90 bd 1f b9 b4 3e 70 26 b6 3e
       0.44046715 -0.07068639 0.35297486 0.355762
000120 62 7a d9 3e df 0a bb 3e 75 69 c1 3e 24 ae 46 bc
       0.42476183 0.3653173 0.3777577 -0.012126479
000130 1e 01 2d bf 2f a5 a6 bd 80 b6 ba 3e 0b c1 e9 3b
       -0.6757983 -0.08136975 0.3646736 0.007133608
000140 6a 32 8d bd 22 95 ac 3e 6d 17 fa 3e 64 4d 65 bd
       -0.06894381 0.3370753 0.48845997 -0.05598201
000150 5c 85 f3 3d e1 8b 93 bd 49 bd 05 bd a3 82 a2 bd
       0.11890671 -0.07204414 -0.03265122 -0.07935073
000160 95 bd a0 3d 01 dc b0 3e cd b9 f6 3e 67 16 96 be
       0.0784866 0.3454285 0.4818863 -0.29313967
000170 d2 b7 07 bd ff 22 37 3a 00 01 04 be c6 db d8 3e
       -0.03313429 0.0006986111 -0.12891006 0.42355174
000180 81 31 a6 bd 29 9a a8 3d dd 8b cc bc 4b 83 a8 bd
       -0.08114911 0.08232529 -0.024969036 -0.08228167
000190 c1 35 b4 3e d0 e7 38 bc 7c d9 56 bd 56 c3 e3 3e
       0.3519726 -0.011285737 -0.052453503 0.44484967
0001a0 e5 51 cf 3e 6d ec c8 3e fc 7d cb 3d 75 c8 4e bd
       0.40492168 0.3924288 0.09936139 -0.05048414
0001b0 cf 42 97 bd 4d 21 b4 3e 27 ec 7b 3c c3 29 0c 3f
       -0.073857896 0.35181656 0.015376127 0.54751223
0001c0 97 39 04 3f d9 e0 e6 3c 74 27 b9 3e 91 2f cb 3e
       0.51650375 0.028183388 0.36162913 0.39684728
0001d0 7a ec ec 3e a8 b1 f3 3e b8 dd d2 3e ce 61 89 3d
       0.46274167 0.47596478 0.41184783 0.06708108
0001e0 f3 39 fc 3c 8f d5 e9 3e 3e bd fd 3e b1 12 7d 3e
       0.030789351 0.45670745 0.49558443 0.24714161
0001f0 f6 86 4b 3d 4c db 40 3d b7 cd a0 bc 7f 27 37 3d
       0.049689256 0.047084138 -0.019629342 0.0447154

fc3.bias f4 [2]
000000 a3 55 07 3f 52 da e3 3e
       0.52865046 0.44502503
